codes/lightning_logs/version_2/checkpoints/epoch=1282-step=50000.ckpt (torch, 827539 bytes, 42 tensors)

g.0.weight f4 [128, 4]
-0.00374341 0.2682218 -0.41152257 -0.3679695 -4.5877295 0.13463198 4.4157662 0.015386542
-0.044372022 0.13230628 5.5012827 -0.098282695 -1.0763658 -0.3311411 -0.05006463 -0.0018146486
0.1976676 0.3000114 -0.33897054 -0.21773142 -1.5545806 0.41536355 0.82424694 -0.09701523
-0.08059168 0.05290705 4.96494 -0.46383518 -4.998138 -0.12539002 4.548828 0.30925432
-0.32408983 -0.23016644 3.6129992 -0.4682805 -1.7967163 0.42997888 1.8349304 -0.18235196
0.026295781 -0.25634176 4.7708282 -0.46684736 -2.274858 -0.25748652 1.8187932 -0.11804801
-5.0214915 -0.017178202 4.760288 0.15234506 0.19844109 0.06754643 4.056699 -0.29440117
0.093172014 -0.38765275 1.821079 -0.25829178 -0.39398548 0.20108022 -0.22483625 -0.011274696
-0.57700723 -0.06310813 0.115743466 -0.02817029 0.3101883 0.48009706 -0.38531178 -0.18323487
-4.510924 0.41510907 4.923993 0.11735728 0.09950727 -0.43479133 2.9898405 -0.31280267
-0.46597707 0.44424623 4.240508 -0.49876398 0.09358603 -0.084230006 -0.082280576 -0.22887844
-0.73147744 -0.29615158 0.47492114 -0.02667635 0.3579358 0.18695557 -0.49486762 -0.32434845
0.24965751 0.104650676 -0.390042 -0.28790975 0.47037464 0.33690894 -0.21801257 -0.12584239
-0.47629905 -0.008987069 -0.37652946 -0.38567835 -0.8003537 0.07510779 -1.5197549 -0.06617249
-0.30426955 0.45368505 4.1338625 -0.42164147 -1.0839198 0.022567991 0.038717628 -0.046135526
-0.9974597 0.030002004 -0.63936216 -0.047773696 -0.47962445 -0.29635334 -0.12516493 -0.24355668
-1.2440279 -0.40981108 -0.092470765 -0.10953987 -0.3257329 -0.02565968 4.350577 -0.051400125
-1.5112319 -0.04300572 0.92510563 -0.09913527 6.1914845 0.317489 5.873019 -0.08830282
-0.48141807 -0.23703866 3.596581 -0.035449006 -0.24852318 -0.38315588 -17.82784 -0.4220041
-0.101418376 0.274203 0.27032053 -0.48221594 0.31189102 -0.39125472 -0.10570514 -0.20273632
-0.096307635 -0.09817135 -18.6953 -0.43171895 -1.2388115 0.0064936434 0.0014538984 -0.006580169
-0.4500292 -0.03374362 5.688078 -0.203946 -0.75841445 0.18110982 -0.9386892 -0.13408732
-0.057697237 -0.22320342 6.006057 -0.4040476 -1.025535 -0.104678914 0.2229024 -0.054895673
0.24025267 0.17657948 3.5636058 -0.105152726 -3.5665314 0.27119526 1.6225781 -0.040514756
-0.35268915 0.022299945 -0.35246706 -0.2752421 -0.29135275 0.17087251 -0.2979566 -0.010908604
0.021034062 0.32231152 -0.37796003 -0.34325612 -1.7181938 0.34997302 -1.9774231 -0.018636452
0.18080378 0.06331301 -0.003722012 -0.09884077 -0.8079229 -0.11416254 0.007617197 -0.013487677
-0.39110255 -0.2620657 5.9678416 -0.40577334 -0.3414244 0.49461937 2.8774586 -0.26115137
-0.43330497 0.24768895 2.0244775 -0.14193213 -1.7858714 -0.074031204 -0.6969182 -0.04073427
0.062419415 0.4478464 4.3075986 -0.31610698 -0.7298959 -0.3534468 0.16431095 -0.009335922
-0.3797184 0.37511402 -0.115412466 -0.0007280862 0.25741178 -0.48354608 4.0963173 -0.4134612
-0.99853355 -0.085008316 -0.08513035 -0.007453234 0.41345936 -0.14615977 -11.946483 -0.18491942
00000000: 0054 75bb 5e54 893e 16b3 d2be 8066 bcbe
00000010: aece 92c0 f7dc 093e f54d 8d40 d617 7c3c
00000020: 70bf 35bd 4c7b 073e 820a b040 7048 c9bd
00000030: 5bc6 89bf 548b a9be 9210 4dbd 81d9 edba
00000040: 6069 4a3e 189b 993e 8c8d adbe fcf4 5ebe
00000050: 7ffc c6bf 88aa d43e d901 533f ecaf c6bd
00000060: 400d a5bd 10b5 583d cae0 9e40 ce7b edbe
00000070: bff0 9fc0 3e66 00be 0090 9140 9556 9e3e
00000080: 1aef a5be c0b0 6bbe 613b 6740 76c2 efbe
00000090: cdfa e5bf 3126 dc3e 00df ea3f 79ba 3abe
000000a0: 406a d73c 3a3f 83be a0aa 9840 9e06 efbe
000000b0: 4697 11c0 46d5 83be 37ce e83f 28c3 f1bd
000000c0: 0fb0 a0c0 4db9 8cbc 4754 9840 5800 1c3e
000000d0: 2434 4b3e c855 8a3d 7ad0 8140 c0bb 96be
000000e0: f8d0 be3d 6c7a c6be 1e19 e93f d23e 84be
000000f0: 77b8 c9be f9e7 4d3e 793b 66be 81b9 38bc
00000100: bfb6 13bf d63e 81bd e90a ed3d 61c5 e6bc
00000110: 00d1 9e3e 48cf f53e 9647 c5be eca1 3bbe
00000120: 7d59 90c0 2d89 d43e 5a91 9d40 0359 f03d
00000130: 78ca cb3d f89c debe 8c59 3f40 ac27 a0be
00000140: 8c94 eebe 3e74 e33e 3eb2 8740 fe5d ffbe
00000150: 08aa bf3d c880 acbd b882 a8bd 1c5f 6abe
00000160: 1b42 3bbf 2ea1 97be dd28 f33e 5c88 dabc
00000170: 5c43 b73e 4871 3f3e 4a5f fdbe 0011 a6be
00000180: 38a6 7f3e 1853 d63d 96b3 c7be e868 93be
00000190: f2d4 f03e 547f ac3e b03e 5fbe d4dc 00be
000001a0: 78dd f3be 803e 13bc 78c8 c0be a277 c5be
000001b0: fbe3 4cbf 1dd2 993d 5487 c2bf 7185 87bd
000001c0: 38c9 9bbe 6849 e83e 9a48 8440 64e1 d7be
000001d0: e2bd 8abf 82e0 b83c 6096 1e3d 9bf8 3cbd
000001e0: 8559 7fbf c3c6 f53c 3dad 23bf 5aae 43bd
000001f0: 5691 f5be a0bb 97be 3c2b 00be ec66 79be
00000200: 4e3c 9fbf c2d2 d1be 5061 bdbd 7056 e0bd
00000210: 76c6 a6be 4034 d2bc ed37 8b40 f088 52bd
00000220: 0c70 c1bf c426 30bd b9d3 6c3f 6f07 cbbd
00000230: a420 c640 eb8d a23e c6ef bb40 1cd8 b4bd
00000240: 6e7c f6be 43ba 72be 622e 6640 fa32 11bd
00000250: dc7c 7ebe 022d c4be 6b9f 8ec1 ec10 d8be
00000260: 70b4 cfbd 5664 8c3e 7467 8a3e 02e5 f6be
00000270: 2eb0 9f3e 8a52 c8be f07b d8bd 1c9a 4fbe
00000280: f03c c5bd 100e c9bd f98f 95c1 440a ddbe
00000290: 6091 9ebf a1c8 d43b bc90 be3a 759e d7bb
000002a0: 3a6a e6be c036 0abd bc04 b640 38d7 50be
000002b0: 7327 42bf da74 393e ef4d 70bf 304e 09be
000002c0: f053 6cbd 708f 64be 9e31 c040 54df cebe
000002d0: bb44 83bf e661 d6bd 8740 643e 49da 60bd
000002e0: cc04 763e 40d1 343e 1e12 6440 505a d7bd
000002f0: 0d42 64c0 1bda 8a3e a4b0 cf3f cdf2 25bd
00000300: ac93 b4be 60ae b63c 9076 b4be 88ec 8cbe
00000310: 302c 95be 34f9 2e3e c48d 98be 00ba 32bc
00000320: a04f ac3c 0406 a53e fa83 c1be 44bf afbe
00000330: c6ed dbbf aa2f b33e 331c fdbf 79ab 98bc
00000340: a024 393e 40aa 813d 00ed 73bb 086d cabd
00000350: 09d4 4ebf 0dce e9bd ae99 f93b 6bfb 5cbc
00000360: 983e c8be 7a2d 86be 8ff8 be40 86c1 cfbe
00000370: 2ecf aebe c03e fd3e 4828 3840 a2b5 85be
00000380: 26da ddbe 2ca2 7d3e 0a91 0140 a856 11be
00000390: 6f97 e4bf ac9d 97bd 3b69 32bf fad8 26bd
000003a0: 80ab 7f3d 204c e53e d9d7 8940 c6d8 a1be
000003b0: 75da 3abf fbf6 b4be 2141 283e b2f5 18bc
000003c0: 736a c2be f20e c03e 5f5d ecbd 0add 3eba
000003d0: 7acb 833e 5a93 f7be 0815 8340 30b1 d3be
000003e0: e59f 7fbf d718 aebd d258 aebd 423a f4bb
000003f0: f2b0 d33e e8aa 15be cb24 3fc1 845b 3dbe

g.0.bias f4 [128]
-0.1387273 10.636345 0.039655656 -0.0060577705 -0.24428582 3.4692078 -0.41031435 10.208361
0.7375523 4.691814 -0.41173792 3.594491 9.514216 -1.1424397 -0.5105845 -0.011786573
-0.25264496 -0.24224776 10.388186 0.62764037 -1.1556251 -0.40533495 -0.17398608 -0.0024113655
-0.12745196 -0.32727283 -0.17933607 1.5747411 -1.125939 -0.2928082 2.0536234 -0.24228168
-0.034607973 -0.40814355 2.305009 2.3192415 -0.89236164 1.0677462 -0.47438163 -0.4793306
1.1225282 -0.15531813 -0.2985742 1.8552386 -0.21925701 -0.40565902 -0.69532543 3.2419496
-0.4868073 -0.29518008 -0.17045015 0.66806924 -0.32356685 -0.31162742 -0.18862316 -0.8514848
-0.47434497 -0.07296157 -0.14316057 -0.2526338 -0.012365056 -1.1566049 -0.0016419119 0.69188964
-0.1678099 -4.024198 -0.017557265 0.6615626 -0.14234161 -0.0858172 3.084911 -0.011927754
-0.0016864745 -0.25249362 -0.2753095 -0.13981958 -0.28599745 1.1308758 4.6575985 -0.30686367
-0.008432413 -0.22814904 -0.43025345 -0.0071196975 10.321581 2.2092195 10.575819 2.661714
-0.35603735 -0.053740174 3.232213 -0.4199295 5.856498 -0.22827727 -0.4022914 10.046645
4.2116733 -0.29974732 9.930586 9.470178 10.599863 3.951063 -0.37252167 1.0863478
10.406548 1.5689942 -0.6620967 0.79824334 -0.23132831 -0.423572 0.5184394 -0.01815003
-0.2045693 9.83353 1.1769645 -0.18459356 -0.45576245 10.040386 -0.17032537 2.5761929
-0.034645513 1.58599 -0.28978524 -0.3055458 9.775149 1.5945274 1.5842433 2.3379502
00000000: 880e 0ebe 782e 2a41 f86d 223d 4380 c6bb
00000010: 1026 7abe 8007 5e40 b914 d2be 7255 2341
00000020: 3ad0 3c3f 5723 9640 50cf d2be 240c 6640
00000030: 3b3a 1841 773b 92bf aab5 02bf 781c 41bc
00000040: ae5a 81be cc0f 78be 0336 2641 0aad 203f
00000050: 86eb 93bf 1088 cfbe 6829 32be 0008 1ebb
00000060: c482 02be 4e90 a7be e0a3 37be 1e91 c93f
00000070: c51e 90bf f5ea 95be 916e 0340 b018 78be
00000080: 17c1 0dbd 31f8 d0be 4485 1340 746e 1440
00000090: d071 64bf e8ab 883f 26e2 f2be d26a f5be
000000a0: 01af 8f3f b70b 1fbe b8de 98be 7578 ed3f
000000b0: e984 60be 8ab2 cfbe d900 32bf 1a7c 4f40
000000c0: ce3e f9be d821 97be 7c8a 2ebe 9606 2b3f
000000d0: 8eaa a5be a18d 9fbe 6e26 41be e8fa 59bf
000000e0: 58dd f2be e06c 95bd af98 12be 3859 81be
000000f0: ce96 4abc a10b 94bf 6c35 d7ba ae1f 313f
00000100: 5cd6 2bbe 3bc6 80c0 41d4 8fbc 2b5c 293f
00000110: 00c2 11be eec0 afbd 2f6f 4540 a06c 43bc
00000120: b20c ddba d846 81be 5ef5 8cbe dd2c 0fbe
00000130: 426e 92be 8ac0 903f 0c0b 9540 3c1d 9dbe
00000140: 1b28 0abc e79f 69be 2e4a dcbe 5a4c e9bb
00000150: 3225 2541 da63 0d40 8e36 2941 8659 2a40
00000160: 874a b6be a81e 5cbd 94dc 4e40 0001 d7be
00000170: 6e68 bb40 84c1 69be 23f9 cdbe 0fbf 2041
00000180: 07c6 8640 7b78 99be aee3 1e41 d985 1741
00000190: 0a99 2941 37de 7c40 29bb bebe 720d 8b3f
000001a0: 3881 2641 cdd4 c83f 2b7f 29bf ad59 4c3f
000001b0: 54e1 6cbe 6ede d8be 72b8 043f 5faf 94bc
000001c0: 9d7a 51be 2456 1d41 c6a6 963f 1806 3dbe
000001d0: b259 e9be 6ca5 2041 c669 2ebe 58e0 2440
000001e0: 74e8 0dbd b801 cb3f bb5e 94be 8070 9cbe
000001f0: 0367 1c41 7919 cc3f 7cc8 ca3f faa0 1540

g.2.weight f4 [128, 128]
-0.05233592 -0.07534222 -0.7036014 0.00210637 -0.057306565 0.050252847 -0.7542926 -0.30918047
-0.839176 -0.06991853 -0.68457776 -0.07938902 -0.025177903 -2.0517418 -0.05947679 -0.04719224
0.0010905651 0.081384085 -0.16574487 -0.6640299 -2.006617 -0.019168101 0.040467374 -0.06849972
0.009388022 0.08312122 -0.0121456385 0.041474115 -2.0183384 0.075086854 -0.12259322 -0.012738854
-0.006110629 -0.6732527 -0.0013038889 0.17198196 -0.5206721 -0.5311781 0.06052933 -0.023915514
-0.43146673 -0.097243555 -0.5926574 -0.03485494 0.030885454 0.056249153 -0.70286375 -0.11492378
0.043795742 0.026439764 0.03550554 -0.085998 0.056886353 0.0922211 -0.01489546 -0.021496912
0.054713584 -0.0819011 -0.68428123 -0.03401903 -0.0509879 -1.9518576 -0.088225245 -0.43071434
-0.056033876 -0.080638506 -0.03379977 -0.3738366 -0.042171873 0.04074818 -0.049161658 -0.055060543
-0.09097011 -0.08109793 -0.5117077 -0.063418135 -0.011628363 -0.28011394 0.015749643 0.07334834
0.048541058 -0.08265034 -0.0030076583 -0.0923592 -0.090644665 -0.017574308 0.036446728 -0.09952434
0.02715215 -0.037372492 -0.05024479 -0.61935097 -0.06400498 0.008048266 -0.05867589 -1.8849511
-0.051837668 -0.31397086 -0.07163381 -0.13609272 -1.3220699 -0.033917774 -0.7150234 -0.2694809
-0.88965064 0.033038344 -0.5951909 -0.086345956 -0.009689115 -0.7254938 -0.09973124 -0.014208145
0.029829152 -1.095214 -0.38579243 -0.0016039492 -0.03826523 -0.2090041 -0.76030284 -0.109716825
-0.00892275 0.017083686 -0.10300362 0.059269994 -0.102527186 -0.09440125 -0.068092905 0.03757697
-0.0678146 -0.270502 0.71505934 -0.09609163 0.048454337 -0.13978308 0.6959706 -0.6787097
0.20702262 -0.2769599 0.8193346 -0.32139996 -0.3219609 -4.895294 -0.030525247 -0.0049759806
-0.048094828 -0.03707674 -0.27786168 0.03748609 -4.9124055 0.015632264 0.004085693 0.028543279
0.08386736 0.023501053 -0.032356534 -0.024715504 -4.975688 -0.055009 -0.021870077 -0.015632853
0.036651637 0.33704227 -0.13783242 0.20554368 -4.830782 -0.14904024 0.08789206 -0.051200032
-0.21380924 0.0144509105 1.2494094 -0.122183435 2.0336902 -0.051830668 0.15529267 -0.1700455
-0.034831207 0.073419 -0.005816877 -0.0135367215 0.087531544 -0.015624853 2.0545163 -0.15600842
-0.08793342 0.0011713516 0.3493139 -0.0033639458 0.011264406 -4.912736 0.039472263 -0.12793685
0.008863598 -0.27093977 -0.04738064 -0.08152977 0.011309989 -0.04213143 -0.2522718 0.03908198
-0.020357179 0.05775965 1.1596047 0.060610484 0.06018115 -0.26457468 -0.19076368 0.048303485
-0.018263135 0.0362081 -0.18764736 0.085653186 -0.26409477 -0.1284257 -0.18017742 -0.2472458
0.0050732903 -0.049211793 -0.17032595 0.25209853 -0.17980179 0.087447606 0.029129265 -2.2401848
-0.13481574 1.6434382 -0.2619122 -0.30158156 -1.7288698 -0.2023086 0.21213418 -0.18099587
-1.5336993 -0.11726366 0.045927327 0.03091366 0.06772759 0.341774 -0.053236645 -0.002281159
-0.04535764 -1.7097015 -0.35039508 2.0170908 0.051535808 -0.33851188 0.4524651 -0.26123893
0.025794256 0.005006163 -0.041342128 2.0895026 -0.23788702 -0.055179335 -0.2071945 -0.09059701
00000000: 315e 56bd 064d 9abd 391f 34bf 060b 0a3b
00000010: 4aba 6abd eed5 4d3d 5219 41bf e74c 9ebe
00000020: 3dd4 56bf 7231 8fbd 7d40 2fbf b696 a2bd
00000030: e441 cebc bd4f 03c0 ef9d 73bd a64c 41bd
00000040: 4bf1 8e3a b3ac a63d 06b9 29be ddfd 29bf
00000050: 6a6c 00c0 6c06 9dbc 1ec1 253d 9549 8cbd
00000060: 38d0 193c 753b aa3d 80fe 46bc c3e0 293d
00000070: 752c 01c0 23c7 993d 2712 fbbd a0b6 50bc
00000080: ac3b c8bb 4a5a 2cbf 40e7 aaba 0a1c 303e
00000090: c44a 05bf 4afb 07bf 9aed 773d 78ea c3bc
000000a0: 35e9 dcbe a127 c7bd 65b8 17bf 0ec4 0ebd
000000b0: 7e03 fd3c 8365 663d e1ee 33bf 295d ebbd
000000c0: 2a63 333d 3498 d83c 426e 113d b81f b0bd
000000d0: aa01 693d 6bde bc3d 160c 74bc 4b1a b0bc
000000e0: 5a1b 603d c4bb a7bd 0e2d 2fbf 8a57 0bbd
000000f0: b0d8 50bd 78d6 f9bf 70af b4bd 9786 dcbe
00000100: c783 65bd cd25 a5bd a171 0abd 8367 bfbe
00000110: 6abc 2cbd 90e7 263d bc5d 49bd 2a87 61bd
00000120: 894e babd ac16 a6bd 47ff 02bf 5ee1 81bd
00000130: e484 3ebc 186b 8fbe 6505 813c a837 963d
00000140: fdd2 463d 9544 a9bd 221c 45bb d226 bdbd
00000150: e9a3 b9bd fff7 8fbc 2a49 153d 6bd3 cbbd
00000160: 306e de3c e613 19bd 7bcd 4dbd c98d 1ebf
00000170: 0b15 83bd e0dc 033c 2156 70bd 1446 f1bf
00000180: bc53 54bd cac0 a0be bfb4 92bd e45b 0bbe
00000190: 9639 a9bf 5ded 0abd c60b 37bf 67f9 89be
000001a0: 25c0 63bf 3753 073d 6e5e 18bf 26d6 b0bd
000001b0: 18bf 1ebc f6b9 39bf e43f ccbd 48c9 68bc
000001c0: 445c f43c f92f 8cbf 9686 c5be 9b3b d2ba
000001d0: 00bc 1cbd 2c05 56be 35a3 42bf 37b3 e0bd
000001e0: ba30 12bc 16f3 8b3c 90f3 d2bd 18c5 723d
000001f0: c6f9 d1bd 7155 c1bd 4b74 8bbd 4fea 193d
00000200: 62e2 8abd 3d7f 8abe 210e 373f b0cb c4bd
00000210: 0e78 463d 4c23 0fbe 212b 323f ebbf 2dbf
00000220: bdfd 533e b0cd 8dbe eabf 513f 898e a4be
00000230: 0fd8 a4be 40a6 9cc0 1510 fabc 8d0d a3bb
00000240: 15ff 44bd c8dd 17bd e343 8ebe 048b 193d
00000250: 6d32 9dc0 3c0f 803c 47e1 853b 98d3 e93c
00000260: a7c2 ab3d 4885 c03c 4988 04bd 2b78 cabc
00000270: d638 9fc0 1e51 61bd e028 b3bc 7810 80bc
00000280: 0720 163d ce90 ac3e f123 0dbe 0b7a 523e
00000290: c495 9ac0 019e 18be c100 b43d 20b7 51bd
000002a0: cff0 5abe 83c3 6c3c a6ec 9f3f 4f3b fabd
000002b0: fb27 0240 654c 54bd 0b05 1f3e 6820 2ebe
000002c0: 2bab 0ebd b35c 963d 809b bebb 20c9 5dbc
000002d0: bd43 b33d 62ff 7fbc 327d 0340 acc0 1fbe
000002e0: 7016 b4bd 0a88 993a 46d9 b23e a575 5cbb
000002f0: 588e 383c 2235 9dc0 abad 213d e101 03be
00000300: a038 113c 9eb8 8abe 3412 42bd 14f9 a6bd
00000310: 884d 393c 0292 2cbd c529 81be 6d14 203d
00000320: 19c4 a6bc 6295 6c3d ed6d 943f b342 783d
00000330: 8280 763d 5576 87be 8e57 43be e0d9 453d
00000340: 929c 95bc f24e 143d a126 40be f06a af3d
00000350: 6e37 87be 0782 03be 6e80 38be 012e 7dbe
00000360: d83d a63b 4e92 49bd ed69 2ebe 0f13 813e
00000370: f61d 38be bb17 b33d 7fa0 ee3c 305f 0fc0
00000380: 230d 0abe 2f5c d23f 5b19 86be e668 9abe
00000390: 9b4b ddbf fc29 4fbe b439 593e fb56 39be
000003a0: 4250 c4bf ee27 f0bd 4b1e 3c3d a53e fd3c
000003b0: c3b4 8a3d 00fd ae3e ab0e 5abd 7f7f 15bb
000003c0: efc8 39bd 80d7 dabf fc66 b3be 0418 0140
000003d0: 3617 533d 6e51 adbe 81a9 e73e 1cc1 85be
000003e0: 7a4e d33c bd0a a43b 5d56 29bd 69ba 0540
000003f0: a898 73be ba03 62bd cc2a 54be ed8a b9bd

g.2.bias f4 [128]
-0.17462921 -0.31857434 -1.5385004 0.011680402 0.99985826 0.7007004 -1.720374 -0.36540884
0.2157157 0.50136507 -0.3908954 -0.36099157 0.06199918 -0.03323378 0.014356495 -1.8285518
-0.0946023 -0.9618089 -0.68544793 -0.396604 -0.08261321 -0.41582346 -0.70668274 -0.35149983
-0.30863965 2.2518094 -0.2786092 -0.36670357 -0.347495 -0.93822193 -0.28424975 -0.25193238
0.3508306 0.88717 1.095543 -0.30628207 -2.006315 8.926037 -0.3589689 -0.16922301
10.699874 0.90104896 -1.1710628 -0.15662202 -0.47757682 -0.004671372 9.9325 -0.42435285
-0.21087138 -0.013507031 0.3162388 -0.2437705 10.557632 -0.2174214 0.33112526 -0.372545
-0.034528214 1.0347652 -0.07484392 10.638784 -0.11331267 1.7748238 0.6086224 -0.72043145
1.4324702 2.3618577 -0.35184976 -0.1804182 -0.36086875 0.7117569 -0.45247084 -0.20000657
-0.65921605 -1.6889951 -0.6664962 1.245917 1.5474437 0.45027792 -0.77744997 -0.89691484
-1.687696 10.602514 -2.6130142 -0.065327145 -0.030084271 -0.029599862 -1.0203738 -0.900235
-1.3174222 3.5857556 -0.33533502 -0.022248318 -0.4170147 -0.4805713 -0.9826119 -0.02789294
-0.65065783 -0.24098812 10.447094 0.039690237 -0.7036609 -0.61957955 0.1421729 -0.2630384
-0.34295547 0.14888658 -1.252817 0.06588616 -0.45749027 -0.092263386 -0.33234182 -0.27956074
0.0056797117 1.8792359 4.7224994 -0.52673286 9.843395 0.5740385 10.821395 -0.4694465
-1.1309351 -1.348606 -0.49522185 -0.38611755 0.62446594 -0.7956686 -0.2149832 -0.3717902
00000000: 00d2 32be 2d1c a3be 95ed c4bf 285f 3f3c
00000010: b6f6 7f3f 1a61 333f 3735 dcbf de16 bbbe
00000020: 94e4 5c3e 7659 003f 7123 c8be e3d3 b8be
00000030: daf2 7d3d 2520 08bd 8137 6b3c fc0d eabf
00000040: dabe c1bd 1c39 76bf 8479 2fbf ae0f cbbe
00000050: 1d31 a9bd d0e6 d4be 29e9 34bf c9f7 b3be
00000060: 0406 9ebe a51d 1040 dda5 8ebe 92c0 bbbe
00000070: ddea b1be 502f 70bf 2f89 91be 48fd 80be
00000080: 12a0 b33e 931d 633f c13a 8c3f 01d1 9cbe
00000090: 7767 00c0 0cd1 0e41 c6ca b7be cc48 2dbe
000000a0: af32 2b41 25ab 663f 63e5 95bf 8661 20be
000000b0: f384 f4be 4f12 99bb 85eb 1e41 c744 d9be
000000c0: abee 57be 984c 5dbc 0dea a13e f99e 79be
000000d0: 10ec 2841 b7a3 5ebe 4089 a93e 38be bebe
000000e0: 756d 0dbd 3073 843f c547 99bd 7638 2a41
000000f0: 7910 e8bd 6d2d e33f adce 1b3f 326e 38bf
00000100: 2f5b b73f ad28 1740 a725 b4be 8cbf 38be
00000110: cac3 b8be b335 363f 42aa e7be 86ce 4cbe
00000120: 62c2 28bf fe30 d8bf 7f9f 2abf 357a 9f3f
00000130: a312 c63f d48a e63e f606 47bf 369c 65bf
00000140: 6c06 d8bf e6a3 2941 a03b 27c0 3dca 85bd
00000150: 4a73 f6bc 697b f2bc 9c9b 82bf cd75 66bf
00000160: 4aa1 a8bf 057d 6540 08b1 abbe 1b42 b6bc
00000170: f382 d5be 710d f6be 748c 7bbf bc7f e4bc
00000180: 8391 26bf 97c5 76be 4c27 2741 3b92 223d
00000190: 1f23 34bf c49c 1ebf c695 113e f8ac 86be
000001a0: dc97 afbe b975 183e 4f5c a0bf 53ef 863d
000001b0: 2a3c eabe 96f4 bcbd b528 aabe 9622 8fbe
000001c0: e01c ba3b cd8a f03f b71e 9740 f7d7 06bf
000001d0: 8c7e 1d41 30f4 123f 6f24 2d41 4b5b f0be
000001e0: 7bc2 90bf 1f9f acbf b88d fdbe 33b1 c5be
000001f0: 00dd 1f3f f0b0 4bbf 8e24 5cbe 495b bebe

g.4.weight f4 [128, 128]
-0.12247507 -0.026263755 -0.006262213 0.04995311 -0.18708447 -0.19675106 -0.43352598 0.007909939
-0.106638335 -0.11734588 -0.094688125 0.08733884 -0.11357262 0.042814605 0.076938726 -0.036470626
-0.07624832 -0.3790667 0.012126893 0.0474462 -0.082080245 0.05260905 0.015837617 -0.025127426
-0.034078825 -0.3993124 0.019990407 -0.010365151 0.02131968 -0.21465118 0.0010779127 -0.081465274
-0.27412006 -0.24167183 -0.13725606 0.084633835 0.026937969 -0.12572666 -0.08493188 -0.06880658
-0.2698349 0.07606121 0.050511755 0.059883736 0.08286806 -0.025951046 -0.103017725 0.0074950606
0.019907333 -0.022849925 -0.029114664 -0.050498456 -0.16162947 0.052334897 -0.0532574 -0.041954026
-0.14030601 -0.2685654 -0.014077708 -0.1656401 -0.0071154013 -0.17954352 -0.13238902 -0.06110567
-0.2147435 -0.018470317 0.03764432 0.026062176 -0.076492965 -0.28640875 -0.19929399 -0.06917408
0.010387734 -0.051939595 0.070407726 -0.36789265 -0.01769171 -0.06777095 0.0255526 0.01455763
-0.0026927963 -0.20362651 -0.041036658 -0.06054955 0.06707079 -0.043434802 0.05304218 0.028878555
-0.24535765 -0.22769915 -0.00039049238 -0.051724773 -0.055341836 -0.0017650574 -0.07690057 -0.24389471
-0.1718125 -0.009146489 -0.14351085 0.06320835 0.16886467 -0.039544627 -0.29498017 -0.029359337
0.021425225 -0.26690748 0.07193499 0.058007248 -0.018830843 -0.15603866 0.07354201 0.04870724
0.08575753 -0.40336525 -0.062081296 -0.26533702 -0.19919534 -0.14952895 -0.11383171 -0.045815837
-0.07922023 0.0037143156 0.015580878 0.024331331 -0.03491958 -0.19503462 -0.082386605 0.08780279
-0.061172605 -0.0134959845 -0.11606272 -0.046930134 -0.113056995 -0.091188036 -0.0041083586 0.08851976
0.042421654 -0.043209396 0.017082447 0.0039674714 0.0392721 -0.053179923 0.077038124 0.21855727
-0.2216742 -0.076368965 -0.031525556 -0.028793346 -0.03629388 -0.074987784 0.020282403 0.08634401
0.04930556 -0.0604105 -0.008825332 -0.0032470496 -0.027039556 -0.060619585 0.035110902 -0.036993146
-0.08313829 -0.5421855 0.069986194 0.07095142 0.077699006 -0.10650138 0.08215886 -0.011278827
0.010189011 0.036373466 0.0086680455 -0.07427094 -0.05815386 0.11763799 -0.0714563 0.052583046
-0.028911682 -0.025622347 -0.06668093 0.04490914 0.012483032 0.020853678 -0.048865806 0.033549502
-0.12791146 0.011950804 -0.0063001495 0.017541884 0.094011 -0.08126656 0.066762835 -0.033450603
-0.13311586 0.08194621 -0.04755336 0.019472716 0.44733974 -0.045777805 0.06618904 0.021050498
0.07661775 -0.12215785 -0.034730673 -0.05623742 -0.0807127 0.06215056 0.37803337 0.82357186
0.0086152535 -0.06278696 0.07877892 0.033543393 0.041035928 -0.005115513 0.03307685 -0.09146384
0.0037945504 -0.05330898 -0.07013957 -0.016195014 0.012870835 0.07710413 0.011747057 -0.06400584
-0.0458677 -0.045679864 -0.08123667 -0.037968647 -0.073074825 0.51896566 -0.051078457 0.003027084
0.049675833 -0.09110254 0.05686491 -0.07153642 -0.063910395 -0.09264569 -0.039269164 0.08701934
0.07930782 0.018305745 -0.031623382 0.001529171 -0.04566644 0.018296504 -0.05171696 0.35895854
-0.0011573592 0.039750118 0.071267836 -0.024914104 0.08089012 0.099717245 0.03678269 -0.048785437
00000000: 36d4 fabd 1627 d7bc 4033 cdbb a29b 4c3d
00000010: 1293 3fbe 1c79 49be 1ef7 ddbe b098 013c
00000020: 3365 dabd 0953 f0bd d9eb c1bd b5de b23d
00000030: c398 e8bd 5e5e 2f3d 0d92 9d3d 3962 15bd
00000040: 1428 9cbd 0815 c2be e0af 463c f256 423d
00000050: b019 a8bd 967c 573d e4bd 813c 08d8 cdbc
00000060: 3d96 0bbd ad72 ccbe ecc2 a33c 98d2 29bc
00000070: 9ca6 ae3c 85cd 5bbe c048 8d3a 44d7 a6bd
00000080: 7759 8cbe d278 77be da8c 0cbe 8154 ad3d
00000090: 04ad dc3c 7dbe 00be c4f0 adbd 77ea 8cbd
000000a0: cd27 8abe fbc5 9b3d 6ae5 4e3d a648 753d
000000b0: bbb6 a93d 4a97 d4bc f5fa d2bd 2099 f53b
000000c0: b414 a33c c42f bbbc e081 eebc 78d7 4ebd
000000d0: 3282 25be 1e5d 563d 6e24 5abd fcd7 2bbd
000000e0: 61ac 0fbe 6781 89be 30a6 66bc 8f9d 29be
000000f0: 5028 e9bb 42da 37be fd90 07be f049 7abd
00000100: b8e5 5bbe 104f 97bc ee30 1a3d 5880 d53c
00000110: 58a8 9cbd 2ba4 92be b913 4cbe 24ab 8dbd
00000120: 5031 2a3c 9dbe 54bd ed31 903d 6d5c bcbe
00000130: 34ee 90bc 7fcb 8abd b053 d13c 2083 6e3c
00000140: a079 30bb 7883 50be 0e16 28bd ce02 78bd
00000150: 695c 893d b1e8 31bd c242 593d b892 ec3c
00000160: 093f 7bbe f729 69be 00bb ccb9 5bdd 53bd
00000170: 1fae 62bd 8059 e7ba 0c7e 9dbd 89bf 79be
00000180: 9eef 2fbe 28db 15bc 82f4 12be 6173 813d
00000190: dcea 2c3e 8cf9 21bd a407 97be fe82 f0bc
000001a0: f483 af3c 19a8 88be a752 933d 0299 6d3d
000001b0: 2443 9abc 99c8 1fbe 319d 963d 3e81 473d
000001c0: a5a1 af3d e485 cebe f548 7ebd 41da 87be
000001d0: ddf9 4bbe 1e1e 19be 9920 e9bd 63a9 3bbd
000001e0: 373e a2bd e06b 733b f046 7f3c 8052 c73c
000001f0: d507 0fbd 28b7 47be 4fba a8bd f3d1 b33d
00000200: 2090 7abd 431e 5dbc 4bb2 edbd d039 40bd
00000210: 6d8a e7bd cbc0 babd 699f 86bb d949 b53d
00000220: 54c2 2d3d 56fc 30bd 7df0 8b3c 9001 823b
00000230: c8db 203d 31d3 59bd 2ac6 9d3d 7acd 5f3e
00000240: 90fe 62be 5567 9cbd f120 01bd 06e0 ebbc
00000250: e4a8 14bd 3293 99bd 4827 a63c 21d5 b03d
00000260: a0f4 493d 0071 77bd 2098 10bc 74cc 54bb
00000270: 0f82 ddbc 3e4c 78bd 73d0 0f3d 2086 17bd
00000280: 6844 aabd abcc 0abf ec54 8f3d fa4e 913d
00000290: a820 9f3d 651d dabd e842 a83d d4ca 38bc
000002a0: cfef 263c 58fc 143d 6b04 0e3c 5d1b 98bd
000002b0: be32 6ebd 30ec f03d ae57 92bd 5261 573d
000002c0: 31d8 ecbc f5e5 d1bc 0390 88bd a5f2 373d
000002d0: a285 4c3c 55d5 aa3c 8327 48bd 346b 093d
000002e0: 39fb 02be 4ecd 433c 7c71 cebb ffb3 8f3c
000002f0: d788 c03d 156f a6bd f4ba 883d 8003 09bd
00000300: 864f 08be 6ad3 a73d 50c7 42bd 3f85 9f3c
00000310: b709 e53e 8281 3bbd 1f8e 873d 1872 ac3c
00000320: c4e9 9c3d e52d fabd c041 0ebd 3559 66bd
00000330: b34c a5bd 9691 7e3d 978d c13e 9bd5 523f
00000340: fe26 0d3c 7396 80bd d856 a13d cc64 093d
00000350: 4a15 283d 09a0 a7bb 977b 073d 6551 bbbd
00000360: fead 783b 845a 5abd 56a5 8fbd 68ab 84bc
00000370: 32e0 523c c5e8 9d3d ba76 403c 7e15 83bd
00000380: c5df 3bbd cf1a 3bbd 695f a6bd 0385 1bbd
00000390: 41a8 95bd efda 043f a537 51bd 0b62 463b
000003a0: e378 4b3d f893 babd 2eeb 683d b081 92bd
000003b0: 74e3 82bd 06bd bdbd b4d8 20bd 3237 b23d
000003c0: 236c a23d eef5 953c 8587 01bd 776e c83a
000003d0: bc0c 3bbd 8de2 953c 2ad5 53bd 6ac9 b73e
000003e0: 88b2 97ba 05d1 223d dff4 913d aa18 ccbc
000003f0: b8a9 a53d 8e38 cc3d 72a9 163d 3dd3 47bd

g.4.bias f4 [128]
-0.26228157 -0.036426876 -0.41116726 2.1499991 0.68263304 -0.97219807 -0.063524246 3.0364745
0.18650085 -0.24127324 0.25579038 -0.47021148 -1.2884763 -0.22810848 -0.25298792 -0.38403207
-0.4480751 2.9328597 -0.28947318 -0.19256863 -0.16248725 1.0358117 0.5096627 -0.59978616
-0.72336346 -0.23455569 1.1905674 -0.08302425 0.0388125 0.5363431 5.5338097 0.5517648
-0.36813793 -0.69362694 -0.028749298 -0.25669223 1.5583005 -0.31880984 -0.2648028 -0.63491434
-0.31741917 -0.14095147 0.538524 2.3675091 -0.6120211 0.82584286 2.5358474 2.337438
11.448512 1.5353166 5.576855 0.68099487 -0.68247086 -2.7341976 0.27199495 0.4210999
-0.24238805 -0.27761856 -0.07499764 0.60258925 0.34667975 -1.4386172 -0.3706337 -0.7632823
1.091798 -0.66450965 -0.30728778 -0.34776402 5.867683 5.845692 1.1325904 0.20774476
-0.227661 -0.23666497 -1.3955629 0.68104714 0.2441595 -2.1975794 3.00978 4.314923
-0.10441587 1.0225242 -0.14807081 11.760337 -0.027271671 -0.34789017 3.6349106 -0.046929173
0.5521187 -0.105203845 -0.083092764 -0.23647551 -2.985708 0.76930135 -0.20132174 -0.44104862
-1.0071758 -0.287059 0.88307416 2.6908643 -0.13446775 -1.6538702 -0.32513317 0.56617874
0.07741835 -0.29493153 -0.46390447 -0.037136007 -0.13295734 0.5233701 0.67892605 0.7346721
0.85261375 0.948414 -0.5284851 -0.42392132 -0.31095207 -0.22774845 4.5375614 -0.21304207
0.17111982 0.32656386 -0.34973684 -0.250583 0.25413606 -0.21061988 -0.09556332 0.10828852
00000000: c549 86be 5934 15bd 8484 d2be 9699 0940
00000010: 0ac1 2e3f f9e1 78bf 0019 82bd 9955 4240
00000020: 14fa 3e3e 5510 77be f5f6 823e 8fbf f0be
00000030: cbec a4bf 4595 69be a287 81be da9f c4be
00000040: 196a e5be f9b3 3b40 d435 94be b630 45be
00000050: 0f63 26be 7a95 843f 4179 023f 968b 19bf
00000060: 592e 39bf 5e2f 70be 8364 983f 9e08 aabd
00000070: dbf9 1e3d c84d 093f f814 b140 7540 0d3f
00000080: 937c bcbe 8991 31bf a683 ebbc 2a6d 83be
00000090: 6476 c73f 0b3b a3be 3c94 87be bf89 22bf
000000a0: c484 a2be 9555 10be b5dc 093f 4585 1740
000000b0: 6aad 1cbf 706a 533f 534b 2240 9698 1540
000000c0: 1b2d 3741 4185 c43f 9975 b240 ae55 2e3f
000000d0: 69b6 2ebf 18fd 2ec0 ec42 8b3e 689a d73e
000000e0: 9334 78be 0524 8ebe 5d98 99bd 4a43 1a3f
000000f0: 0280 b13e 9c24 b8bf b3c3 bdbe 7866 43bf
00000100: 09c0 8b3f 4e1d 2abf d354 9dbe 200e b2be
00000110: 0fc4 bb40 e90f bb40 b9f8 903f 0bbb 543e
00000120: f71f 69be 4d58 72be cea1 b2bf 1b59 2e3f
00000130: f304 7a3e 24a5 0cc0 3ca0 4040 d913 8a40
00000140: fdd7 d5bd 13e2 823f e09f 17be 572a 3c41
00000150: d768 dfbc a91e b2be 60a2 6840 ce38 40bd
00000160: a757 0d3f 1d75 d7bd 8a2c aabd a326 72be
00000170: d715 3fc0 eff0 443f 4927 4ebe 20d1 e1be
00000180: 23eb 80bf 66f9 92be 2611 623f 1f37 2c40
00000190: eab1 09be 05b2 d3bf db77 a6be 17f1 103f
000001a0: 838d 9e3d 4401 97be e384 edbe ed1b 18bd
000001b0: f825 08be 95fb 053f 19ce 2d3f 7913 3c3f
000001c0: e544 5a3f 43cb 723f cd4a 07bf 370c d9be
000001d0: 1c35 9fbe e436 69be b433 9140 b327 5abe
000001e0: 093a 2f3e 6133 a73e b510 b3be 6a4c 80be
000001f0: 1f1e 823e bdac 57be b4b6 c3bd 5fc6 dd3d

g.6.weight f4 [1, 128]
-0.13337137 0.0034783052 0.04784628 -0.0783074 -0.032013007 -0.02112129 -0.11111007 0.11680085
-0.022398712 -0.110459104 0.00025622998 0.14038971 -0.019868813 0.19089727 0.0029436632 -0.2722518
0.025126353 -7.156067e-05 0.122187026 -0.053788904 -0.11548637 0.044674687 -0.15513198 -0.16080667
0.23758072 -0.1421283 0.018025253 -0.08004194 -0.0020859328 -0.067151435 1.4961839 0.0005083555
0.11081545 1.429403 -0.12968147 -0.27072963 -0.0031825905 0.23688011 -0.03534011 0.11009043
0.17775577 -0.2525353 -0.08530515 -0.01318414 -0.2864309 -0.43782246 0.06615416 -0.9151344
-0.21738027 -0.026886482 -0.0040197056 0.046760347 -0.15625028 -0.01967263 0.015492147 -0.06893864
-0.08278675 -0.019946015 -0.10092181 -6.298933e-05 -0.1347513 0.03909262 0.3009906 0.01376347
-0.0136865275 -0.26772764 -0.22982207 -0.15610363 -4.5872835e-05 0.0021801637 -0.009068413 -0.0007985161
-0.006708776 -0.17690852 -0.2986445 -0.05539279 -0.13330397 0.16892529 0.0013216318 0.0062325005
0.06428346 0.2693215 -0.16711015 -0.3612504 -0.0778692 -0.2440286 0.011060408 -0.097631305
0.0646676 -0.17088267 0.11352102 -0.119364224 0.03537331 0.033611257 -0.18168713 -0.1391262
-0.08380306 -0.26713875 0.014071002 0.027430248 -0.13871454 0.3532292 -0.05892061 -0.04126278
0.040280372 0.0295376 0.14047052 0.15381616 -0.095964074 -0.01795242 -0.0026744867 -0.020570133
-0.109733626 0.01889138 -0.11738954 0.036637463 0.032834906 -0.13969614 0.0005092296 0.00089577
0.0028185986 8.894088e-05 -1.5956421 -0.0045070453 -0.016370643 0.10400709 0.0022303967 -0.0019173269
00000000: 8192 08be 47f4 633b 76fa 433d a15f a0bd
00000010: 1220 03bd 8e06 adbc ad8d e3bd 4935 ef3d
00000020: 817d b7bc 6238 e2bd 9b56 8639 52c2 0f3e
00000030: ecc3 a2bc 937a 433e 79ea 403b 9764 8bbe
00000040: c8d5 cd3c d812 96b8 313d fa3d c151 5cbd
00000050: 1e84 ecbd cefc 363d ebda 1ebe 81aa 24be
00000060: 5c48 733e 158a 11be b2a9 933c 07ed a3bd
00000070: 25b4 08bb b186 89bd f482 bf3f 2943 053a
00000080: 36f3 e23d adf6 b63f 38cb 04be 139d 8abe
00000090: 0293 50bb b390 723e cbc0 10bd 1777 e13d
000000a0: 9c05 363e 4f4c 81be 77b4 aebd 4b02 58bc
000000b0: 12a7 92be 442a e0be d57b 873d 3f46 6abf
000000c0: ef98 5ebe 0a41 dcbc bcb7 83bb c787 3f3d
000000d0: 1300 20be 7f28 a1bc c6d2 7d3c b42f 8dbd
000000e0: 198c a9bd d365 a3bc 18b0 cebd 2419 84b8
000000f0: 3ffc 09be 951f 203d 711b 9a3e 2d80 613c
00000100: 753d 60bc 9913 89be 7a56 6bbe a1d9 1fbe
00000110: 9567 40b8 14e1 0e3b ae93 14bc 8253 51ba
00000120: 4bd5 dbbb 8227 35be efe7 98be 8de3 62bd
00000130: d680 08be c0fa 2c3e 9b3a ad3a 013a cc3b
00000140: 0ca7 833d 82e4 893e ec1e 2bbe d0f5 b8be
00000150: e379 9fbd a2e2 79be b736 353c ecf2 c7bd
00000160: 7270 843d defb 2ebe b57d e83d 3b75 f4bd
00000170: 9be3 103d f5ab 093d 310c 3abe 1977 0ebe
00000180: f0a0 abbd 69c6 88be 0f8a 663c 66b5 e03c
00000190: 2f0b 0ebe 75da b43e bd56 71bd 2903 29bd
000001a0: 08fd 243d d6f8 f13c 81d7 0f3e fc81 1d3e
000001b0: d088 c4bd f410 93bc 7146 2fbb b282 a8bc
000001c0: 06bc e0bd 18c2 9a3c ed69 f0bd 2a11 163d
000001d0: e57d 063d 810c 0fbe d27d 053a 1bd2 6a3a
000001e0: 3db8 383b c585 ba38 003e ccbf d6af 93bb
000001f0: ba1b 86bc ab01 d53d d92b 123b d14e fbba

f.0.weight f4 [128, 1]
-0.61670196 0.07765979 0.028427005 0.021269595 -0.7083141 0.0002917234 0.24869837 -0.40503052
0.13184372 0.13978039 0.076762885 0.14284205 0.46925327 0.12694934 0.16900653 0.001503584
-0.30910182 0.10476377 0.18629952 -0.55026233 0.5012105 -0.3727851 0.023391701 0.14508687
0.20058775 0.23663372 0.08421806 0.16470669 0.07287971 0.21648318 0.009453327 0.17005524
5.733282e-06 -0.65616256 0.008766093 -0.0010196647 0.24263737 5.1866773e-09 0.0029656303 0.00524211
0.021181231 -0.473147 0.4895444 0.39319998 0.0011414893 0.056971144 0.19976307 0.015595893
-0.39320928 0.11642021 0.014073531 0.07459018 0.21040535 0.08593265 0.19407955 0.01837833
-0.22411346 0.1336213 0.20131257 0.13729809 0.12695588 -0.38733184 -0.51438147 0.40353882
0.24880089 -0.3359337 0.0003949424 -0.26921308 0.00018918583 -0.4089364 -6.132623e-05 0.09677093
0.19415128 0.18085644 0.0009358192 0.18396592 0.35791343 0.11487363 0.034674797 -0.3568133
0.08029718 0.1884391 4.2692653e-05 0.010517509 0.10296521 0.0040965294 -0.5186228 0.0049787145
0.22628795 0.026081229 -0.396646 0.16713324 0.0025379807 -0.56293344 0.96503395 0.12055517
-0.2717308 -0.22632498 0.11364363 0.0111715915 0.393873 0.010441549 -0.28550097 -0.2994855
0.020695118 -0.060369257 0.011906638 0.0066572386 0.16579062 0.15713389 0.07068492 0.6947542
0.063177146 0.20162782 -0.5702056 0.012338706 0.021265345 -1.5318592e-06 -0.15646897 0.0680734
-0.02101428 0.08653447 -0.55168384 -0.45904845 0.22758418 0.18851705 -0.37231225 0.23307745
00000000: 2ee0 1dbf 190c 9f3d c0df e83c 933d ae3c
00000010: 1354 35bf 74f2 9839 c9aa 7e3e 2960 cfbe
00000020: 0a02 073e 9722 0f3e dc35 9d3d 3045 123e
00000030: f741 f03e 02ff 013e 0c10 2d3e e813 c53a
00000040: 9842 9ebe 638e d63d 4dc5 3e3e fedd 0cbf
00000050: 554f 003f b0dd bebe f49f bf3c a791 143e
00000060: e066 4d3e 1c50 723e 857a ac3d dfa8 283e
00000070: f541 953d c4ad 5d3e 21e2 1a3c f622 2e3e
00000080: 8460 c036 45fa 27bf a99f 0f3c 45a6 85ba
00000090: ee75 783e 7f36 b231 055b 423b 02c6 ab3b
000000a0: 4384 ad3c 5340 f2be 90a5 fa3e 8251 c93e
000000b0: 069e 953a 935a 693d b18e 4c3e eb85 7f3c
000000c0: ba52 c9be b86d ee3d ab94 663c bcc2 983d
000000d0: 8074 573e 75fd af3d cabc 463e 278e 963c
000000e0: 007e 65be 06d4 083e e224 4e3e df97 0c3e
000000f0: b900 023e 5c50 c6be 81ae 03bf a49c ce3e
00000100: a9c5 7e3e 80ff abbe 4610 cf39 4cd6 89be
00000110: 2f60 4639 1d60 d1be 459c 80b8 d62f c63d
00000120: 98cf 463e 6e32 393e c351 753a 9061 3c3e
00000130: 6e40 b73e de42 eb3d 2907 0e3d 3cb0 b6be
00000140: d972 a43d 2ef6 403e e310 3338 a151 2c3c
00000150: 6ddf d23d 2e3c 863b 77c4 04bf 7c24 a33b
00000160: 07b8 673e 4da8 d53c 2f15 cbbe fa24 2b3e
00000170: 4054 263b 681c 10bf 770c 773f a1e5 f63d
00000180: 4d20 8bbe bcc1 67be febd e83d 0d09 373c
00000190: b9a9 c93e 0813 2b3c 2f2d 92be 2a56 99be
000001a0: cf88 a93c c145 77bd 0f14 433c f724 da3b
000001b0: 04c5 293e b5e7 203e 41c3 903d 69db 313f
000001c0: 0563 813d 8677 4e3e fff8 11bf 4928 4a3c
000001d0: a934 ae3c 489a cdb5 6739 20be 116a 8b3d
000001e0: 2426 acbc fc38 b13d 273b 0dbf 6608 ebbe
000001f0: d40b 693e 9d0a 413e b69f bebe dbab 6e3e

f.0.bias f4 [128]
13.398349 8.295091 5.805314 -3.0424864 11.951462 -0.449259 -1.9546641 11.660191
-1.1565279 7.9360795 1.5884516 1.6300186 -3.4501624 4.068567 1.6164465 15.074878
12.366715 5.27862 -0.47617537 12.86732 -3.6389663 12.383273 -3.5818408 17.000883
1.3143365 0.15453069 3.6366303 -1.3137387 2.1399927 9.353158 -1.4235194 18.158495
-4.328282 13.149951 1.8617841 19.397367 -2.6567965 -0.25329682 -1.3808429 -0.90083784
2.2619216 11.626536 -3.496787 -3.2492986 1.2113953 6.0853596 1.6000699 -2.2978323
12.823725 6.6098146 -2.2036653 13.876268 1.3883636 -2.574156 8.425727 1.961695
12.442747 2.1055758 23.589409 -3.3879554 2.0370445 11.920118 12.25242 -3.4202073
-0.14377537 12.433222 -0.67179495 13.1290245 -0.47139582 11.467164 -1.2020918 5.322608
1.7929004 9.258376 12.144917 10.223086 -3.27777 -3.1761444 -0.25954643 12.756849
0.8440016 1.9906719 -0.36348224 -1.4007063 -3.2484398 -1.7336458 12.00466 -0.7276878
3.7960992 0.66478837 11.908258 1.7013925 2.7124987 13.04177 1.9095521 1.3383292
12.665839 11.358501 -2.1885965 -1.6404585 -3.4302258 -1.5098599 11.50928 11.610185
-2.7597585 11.262246 2.5317256 -0.9612256 7.845661 7.77462 7.5499954 2.0065699
-1.561319 0.4442755 12.1944685 13.009063 0.32184038 -1.9892894 11.623872 -0.31049898
11.206698 9.243054 12.709347 12.982661 -3.2829452 17.098259 11.863895 2.0519762
00000000: a35f 5641 b1b8 0441 22c5 b940 19b8 42c0
00000010: 3039 3f41 4705 e6be 6f32 fabf 2490 3a41
00000020: 1b09 94bf 5df4 fd40 6252 cb3f 73a4 d03f
00000030: 76cf 5cc0 b331 8240 b8e7 ce3f b332 7141
00000040: 11de 4541 74ea a840 42cd f3be 8be0 4d41
00000050: d3e4 68c0 e321 4641 e13c 65c0 cf01 8841
00000060: 2e3c a83f 4b3d 1e3e 8dbe 6840 9728 a8bf
00000070: a4f5 0840 89a6 1541 e235 b6bf 9944 9141
00000080: 4981 8ac0 3366 5241 f14e ee3f cf2d 9b41
00000090: f408 2ac0 1fb0 81be 76bf b0bf 4f9d 66bf
000000a0: 53c3 1040 4b06 3a41 5ccb 5fc0 82f4 4fc0
000000b0: 000f 9b3f 44bb c240 17cf cc3f af0f 13c0
000000c0: fa2d 4d41 9a83 d340 da08 0dc0 3205 5e41
000000d0: e6b5 b13f f9be 24c0 c7cf 0641 d218 fb3f
000000e0: 7e15 4741 c1c1 0640 1cb7 bc41 43d4 58c0
000000f0: f05e 0240 ceb8 3e41 ea09 4441 ade4 5ac0
00000100: da39 13be 7aee 4641 c1fa 2bbf 7c10 5241
00000110: cb5a f1be 8179 3741 25de 99bf ce52 aa40
00000120: c37d e53f 4f22 1441 9451 4241 c391 2341
00000130: fcc6 51c0 f345 4bc0 45e3 84be 0e1c 4c41
00000140: 7d10 583f 56ce fe3f 581a babe 584a b3bf
00000150: 70e6 4fc0 1be8 ddbf 1613 4041 bf49 3abf
00000160: 4af3 7240 922f 2a3f 3a88 3e41 3bc7 d93f
00000170: 9499 2d40 17ab 5041 346c f43f 5f4e ab3f
00000180: 47a7 4a41 6cbc 3541 f711 0cc0 8bfa d1bf
00000190: d288 5bc0 1743 c1bf 0326 3841 51c3 3941
000001a0: e29f 30c0 2932 3441 cb07 2240 e212 76bf
000001b0: a80f fb40 b0c9 f840 9099 f140 a46b 0040
000001c0: 4dd9 c7bf 1478 e33e 8b1c 4341 1f25 5041
000001d0: 43c8 a43e 09a1 febf 61fb 3941 b9f9 9ebe
000001e0: a34e 3341 8de3 1341 7c59 4b41 fbb8 4f41
000001f0: c61b 52c0 3cc9 8841 84d2 3d41 9453 0340

f.2.weight f4 [128, 128]
0.012041616 -0.029055431 0.06831651 0.007699487 0.0746968 0.048211887 -0.053674273 0.076167025
-0.013352078 0.055003118 -0.05259475 0.0077064657 -0.012913391 0.058551643 -0.044033676 -0.08078275
-0.0792775 0.072641514 0.069303535 -0.0118074 0.0356002 -0.0251901 -0.04939819 -0.08505251
0.0012002946 0.047730047 -0.0045385174 0.08133643 -0.080567494 -0.08713819 0.08009622 0.008373121
0.0044153472 -0.082029015 0.08051483 0.069085434 -0.008463888 0.03597907 0.05751431 -0.008840018
-0.07287109 -0.013630365 0.06847491 -0.031387802 -0.07266937 -0.08709849 0.07394817 0.06037049
0.060465727 -0.026002644 0.055829987 -0.074140236 0.06262175 0.008562195 -0.05416235 -0.071703576
-0.05188648 -0.010499922 0.03205647 0.0034530621 0.057492718 -0.06493646 -0.07110089 -0.014859808
0.069188915 -0.033600938 0.06563148 0.06782142 0.04132022 0.071503334 -0.08017628 0.052974254
-0.084055915 -0.090017594 0.010662179 0.010226202 -0.045068666 0.05958204 0.034918237 -0.046623223
0.07545631 0.06621415 -0.051314466 -0.03251802 -0.06293847 0.050055772 0.015198906 -0.02388637
-0.99469995 -0.05771322 -0.043094248 0.039041072 -0.016222613 0.008424623 0.028987424 0.045059945
-0.0107906405 0.06273927 -0.013500688 -0.06586664 0.024295593 -0.027088054 -0.080022536 -0.012735621
-0.07005046 0.037566006 0.051627915 0.034539793 0.041972093 0.06602111 0.021983838 0.03979365
0.06696243 -0.040643357 -0.049657296 0.022862649 0.030735072 0.05790066 0.072469726 -0.090558514
-0.0901634 0.054066993 -0.06905687 0.035218146 0.017867247 0.07964902 -0.025545003 0.07959534
0.0027452116 -0.060071792 -0.0553119 -0.05653476 -0.01159509 -0.05589827 -0.019033512 -0.03478392
0.057410322 -0.09719721 -0.068503976 -0.01233863 -0.04930992 -0.06532041 0.0702879 -0.03996544
-0.04827383 -0.018903777 -0.042503696 0.055468824 -0.027436957 -0.09170949 -0.017083563 -0.001699808
-0.06774918 0.07740035 -0.03331622 -0.048242576 -0.055760138 0.040020686 -0.025593877 -0.049985886
0.021227658 0.05465368 0.07917738 0.044935837 -0.06598544 -0.028822567 -0.022894308 0.09059715
0.06811189 -0.058228143 -0.053644843 0.069475345 -0.058809277 -0.10054746 0.08553652 0.085033506
-0.015254111 -0.03775265 0.063171655 -0.104252346 0.016377725 -0.023583151 -0.031510763 0.045663513
0.024792347 0.047847345 0.020417573 -0.025674172 -0.045013186 -0.10552198 -0.03563388 -0.08039757
0.048832588 -0.011324655 -0.07608914 -0.053531032 -0.08613615 0.021339579 0.051748075 -0.014069938
-0.058495004 0.049426835 -0.06651621 -0.09252011 -0.0037988722 0.06085568 -0.0585335 -0.015991602
0.037625045 0.04056202 0.07237934 0.018016532 0.03478904 0.03649453 0.041013252 -0.02912988
-1.1514151 0.12103931 0.039812297 -0.0061559454 -0.08323851 -0.083560735 0.018486911 -0.021679567
0.03805002 0.011690804 -0.08623988 0.02056504 0.010616854 -0.07505663 -0.030207928 0.052448526
0.082492515 -0.09702963 0.020201724 -0.054794423 0.0031443639 -0.0022857755 0.0006754234 0.096192345
0.06556756 0.09489894 0.011292916 -0.05121165 0.05313186 -0.06518515 0.016596349 -0.032755755
0.04516579 0.0055830786 0.046211336 -0.0027064246 -0.020648867 -0.016269905 -0.06066273 0.073289745
00000000: 334a 453c a805 eebc 87e9 8b3d fa4b fc3b
00000010: a3fa 983d d479 453d 8ed9 5bbd 75fd 9b3d
00000020: adc2 5abc f34a 613d 986d 57bd 8586 fc3b
00000030: b092 53bc d9d3 6f3d a85c 34bd 6d71 a5bd
00000040: 3e5c a2bd 13c5 943d 03ef 8d3d d373 41bc
00000050: 84d1 113d 785b cebc c255 4abd 0330 aebd
00000060: 3453 9d3a 9580 433d d8b7 94bb b793 a63d
00000070: 9200 a5bd 8275 b2bd 7d09 a43d 6a2f 093c
00000080: 9eae 903b d4fe a7bd f6e4 a43d aa7c 8d3d
00000090: 1fac 0abc ca5e 133d 2094 6b3d b9d5 10bc
000000a0: 703d 95bd e551 5fbc 933c 8c3d 7f90 00bd
000000b0: aed3 94bd b160 b2bd 2372 973d 0c47 773d
000000c0: e9aa 773d 7f03 d5bc fcad 643d d6d6 97bd
000000d0: d53f 803d 7348 0c3c 57d9 5dbd 53d9 92bd
000000e0: eb86 54bd dd07 2cbc a54d 033d c54c 623b
000000f0: 7c7d 6b3d 68fd 84bd 589d 91bd 8d76 73bc
00000100: ebb2 8d3d 23a1 09bd cc69 863d f5e5 8a3d
00000110: 643f 293d 5770 923d 7633 a4bd 88fb 583d
00000120: 8225 acbd 255b b8bd 6cb0 2e3c cd8b 273c
00000130: ec99 38bd 4c0c 743d 6d06 0f3d fef7 3ebd
00000140: d688 9a3d 499b 873d 1e2f 52bd 9e31 05bd
00000150: e2e5 80bd 4807 4d3d d504 793c 59ad c3bc
00000160: a8a4 7ebf b364 6cbd 9883 30bd 88e9 1f3d
00000170: 49e5 84bc 6e07 0a3c 0977 ed3c c790 383d
00000180: 3acb 30bc 727d 803d fd31 5dbc 17e5 86bd
00000190: 8d07 c73c c4e7 ddbc dbe2 a3bd 11a9 50bc
000001a0: 9e76 8fbd d0de 193d cb77 533d 9979 0d3d
000001b0: eeea 2b3d 1336 873d 7317 b43c abfe 223d
000001c0: 9923 893d a679 26bd 7365 4bbd 734a bb3c
000001d0: 1ec8 fb3c 3e29 6d3d 026b 943d be76 b9bd
000001e0: 97a7 b8bd 5a75 5d3d b06d 8dbd e740 103d
000001f0: 555e 923c 071f a33d c143 d1bc e202 a33d
00000200: 02e9 333b d70d 76bd bb8e 62bd fe90 67bd
00000210: 55f9 3dbc 96f5 64bd 2bec 9bbc 9579 0ebd
00000220: 1627 6b3d 550f c7bd d04b 8cbd f727 4abc
00000230: 33f9 49bd b5c6 85bd 1af3 8f3d cdb2 23bd
00000240: c8ba 45bd 18dc 9abc 5b18 2ebd 4733 633d
00000250: 78c3 e0bc 2fd2 bbbd d4f2 8bbc 18cc deba
00000260: 15c0 8abd 1384 9e3d 9776 08bd 029a 45bd
00000270: be64 64bd bbec 233d 40aa d1bc 00be 4cbd
00000280: a0e5 ad3c 8adc 5f3d c027 a23d a40e 383d
00000290: 6023 87bd 4e1d ecbc d88c bbbc 008b b93d
000002a0: 3f7e 8b3d a280 6ebd b2ba 5bbd 1749 8e3d
000002b0: ffe1 70bd d4eb cdbd c52d af3d 0c26 ae3d
000002c0: 61ec 79bc 86a2 1abd 2460 813d 4182 d5bd
000002d0: 942a 863c 7431 c1bc 6e11 01bd aa09 3b3d
000002e0: 5219 cb3c 94fb 433d c142 a73c a452 d2bc
000002f0: bf5f 38bd e81b d8bd d5f4 11bd 7ba7 a4bd
00000300: ae04 483d 0c8b 39bc 9fd4 9bbd 5b43 5bbd
00000310: 2668 b0bd 57d0 ae3c caf5 533d 9985 66bc
00000320: 7598 6fbd cb73 4a3d a739 88bd 2f7b bdbd
00000330: 80f6 78bb ce43 793d d3c0 6fbd d200 83bc
00000340: b81c 1a3d 5c24 263d 9f3b 943d 6897 933c
00000350: f47e 0e3d 4a7b 153d 83fd 273d c9a1 eebc
00000360: 9261 93bf 75e3 f73d 3812 233d d0b7 c9bb
00000370: f478 aabd e421 abbd dd71 973c 5999 b1bc
00000380: 56da 1b3d c98a 3f3c 899e b0bd 0478 a83c
00000390: 50f2 2d3c 4ab7 99bd 9e76 f7bc 44d4 563d
000003a0: d6f1 a83d 78b7 c6bd 167e a53c 1e70 60bd
000003b0: ac11 4e3b f3cc 15bb e60e 313a 7e00 c53d
000003c0: 4948 863d 605a c23d ec05 393c 4fc3 51bd
000003d0: cba0 593d cb7f 85bd 11f5 873c e62a 06bd
000003e0: c3ff 383d 42f2 b63b 1948 3d3d 455e 31bb
000003f0: d027 a9bc 7748 85bc 7c79 78bd ef18 963d

f.2.bias f4 [128]
0.4841141 0.9316484 0.0741547 -0.03822303 -0.1744728 -0.2723166 -0.03620147 0.4103122
-0.17696783 -0.09900484 0.3669267 -0.23865984 -0.30294815 -0.33366382 -0.34877256 -0.31992546
-0.048502393 -0.038501192 0.38234082 0.2263834 -0.19466095 -0.021010047 2.5118957 1.3516132
0.006188823 0.031427808 12.394783 -0.024046682 1.795139 -0.12458496 -0.009978094 -0.37557673
0.08701845 -0.2548269 0.69833153 0.046492495 12.874238 0.06283415 -0.5467852 0.43651563
-0.09658745 -0.056677993 0.052460678 2.725221 3.3189757 0.26462105 -0.3894473 1.5081933
-0.025844812 -0.026407989 3.6971545 0.90922034 -0.3983904 -0.21141772 0.33968067 0.03569904
-0.27525616 0.06565339 -0.2568331 -0.124816924 2.6043422 -0.48610926 13.015476 -0.089238
8.098178 0.7844466 -0.84140867 -0.0014026609 -0.11051346 -0.06414311 -0.0011520452 -0.03205068
-0.206275 -1.3432412 -0.41737744 -0.008519364 3.5536804 0.18619975 -0.78442216 3.237724
-0.22177316 0.17214648 1.6669251 0.4586716 0.028292328 -0.33794305 -0.3713012 -0.3804875
-0.078010485 0.07962086 0.027746743 -0.07253079 -0.23485005 -0.3280091 0.49251273 -0.22637542
1.4355308 1.0807419 -0.3060572 -0.0063914256 -0.22089486 1.2292918 -0.08869743 2.4128494
-0.069594495 0.42349303 0.24868998 0.22495086 -0.2901808 -0.26007366 0.00021114871 -0.38545242
-0.04156141 -0.03401672 -0.07425685 12.813596 -0.31688634 -0.016468005 -1.2937025 1.2710098
2.4257205 0.42291018 -0.000372737 -0.20672096 -0.21392828 -0.11951004 0.020025358 -0.08563526
00000000: cedd f73e 8280 6e3f 6bde 973d c08f 1cbd
00000010: ffa8 32be 156d 8bbe fe47 14bd 7114 d23e
00000020: 0e37 35be 0dc3 cabd d1dd bb3e 3f63 74be
00000030: 051c 9bbe fcd5 aabe 5192 b2be 45cd a3be
00000040: 72aa 46bd 6db3 1dbd 2dc2 c33e 0dd1 673e
00000050: 3355 47be 431d acbc e6c2 2040 a901 ad3f
00000060: 9ccb ca3b 72ba 003d 0851 4641 8cfd c4bc
00000070: 1dc7 e53f 6626 ffbd 297b 23bc 984b c0be
00000080: bb36 b23d ac78 82be dbc5 323f ea6e 3e3d
00000090: e1fc 4d41 31af 803d 1dfa 0bbf fa7e df3e
000000a0: a4cf c5bd 2f27 68bd 02e1 563d 056a 2e40
000000b0: 196a 5440 697c 873e a365 c7be 7a0c c13f
000000c0: 80b8 d3bc 9155 d8bc 2e9e 6c40 aac2 683f
000000d0: d4f9 cbbe e37d 58be a0ea ad3e 2839 123d
000000e0: 60ee 8cbe 4975 863d a17f 83be 04a0 ffbd
000000f0: 8bad 2640 50e3 f8be 643f 5041 6ac2 b6bd
00000100: 2392 0141 7ed1 483f 8f66 57bf 7dd9 b7ba
00000110: e254 e2bd 765d 83bd 3900 97ba 9347 03bd
00000120: c139 53be 54ef abbf 7fb2 d5be cd94 0bbc
00000130: 806f 6340 26ab 3e3e e4cf 48bf df36 4f40
00000140: 8118 63be 2b47 303e cd5d d53f 01d7 ea3e
00000150: 50c5 e73c df06 adbe 311b bebe 42cf c2be
00000160: f6c3 9fbd 4310 a33d 234d e33c 068b 94bd
00000170: 887c 70be cff0 a7be a12a fc3e f5ce 67be
00000180: 79bf b73f c055 8a3f 88b3 9cbe 2a6f d1bb
00000190: 4332 62be 6f59 9d3f 00a7 b5bd 206c 1a40
000001a0: 8f87 8ebd 14d4 d83e 96a8 7e3e 8559 663e
000001b0: 9492 94be 6028 85be cd67 5d39 055a c5be
000001c0: 4c3c 2abd 1e55 0bbd fa13 98bd 7d04 4d41
000001d0: ed3e a2be e9e7 86bc 0b98 a5bf 73b0 a23f
000001e0: 013f 1b40 af87 d83e ea6b c3b9 a9ae 53be
000001f0: 0410 5bbe aec1 f4bd 380c a43c 8a61 afbd
