codes/lightning_logs/version_0/checkpoints/epoch=85-step=50000.ckpt (torch, 829075 bytes, 42 tensors)

g.0.weight f4 [128, 5]
0	0x3c8bba59	0.01705663
1	0x3a79c5eb	0.0009528088
2	0xbf302aa8	-0.6881509
3	0xbb1817e6	-0.0023207604
4	0x3ab5787d	0.0013845112
5	0xbb001763	-0.001954519
6	0xba0d25da	-0.00053843635
7	0x3fdcb35e	1.7242239
8	0x39e9b7ed	0.00044578259
9	0xba562207	-0.00081685226
10	0x3aba9a86	0.0014236725
11	0x39428ef0	0.0001855453
12	0xbfcc8aa0	-1.5979805
13	0xb9a7097d	-0.00031859791
14	0x3971a50f	0.0002304504
15	0xbe125e56	-0.14293799
16	0xbc682539	-0.014169031
17	0x3e1e845b	0.15480177
18	0x3d4c83a6	0.049930237
19	0xbc1a3686	-0.009412413
20	0x3ebd653e	0.36991304
21	0xbb4c7d86	-0.0031202747
22	0xbec47f51	-0.38378385
23	0xb9c2e781	-0.00037175047
24	0x38c65639	9.457436e-05
25	0x3b51a4a9	0.0031989014
26	0xbc197917	-0.009367249
27	0xbccecf6c	-0.02524539
28	0x3c338bfa	0.010958666
29	0xbb15f9ab	-0.002288441
30	0xbc1c9add	-0.009558407
31	0xba8d36d6	-0.0010773789
32	0xbf2299a9	-0.63515717
33	0xbb04ff27	-0.0020293684
34	0xbb272b2a	-0.0025507906
35	0xbb32e6d1	-0.0027298222
36	0xbda5cea8	-0.08096057
37	0x3cbeaa2f	0.02327451
38	0x3c1ba188	0.009498961
39	0x3d346357	0.04404005
40	0x3ec72bea	0.3890069
41	0xba3f8a40	-0.00073066726
42	0x3ed74bb6	0.4204995
43	0x3b2960b4	0.0025844993
44	0xbad6e29d	-0.001639444
45	0x3b533911	0.003223006
46	0x39f86a39	0.00047381388
47	0x3f007e06	0.50192297
48	0x3ab3f63d	0.0013730001
49	0x3b17d480	0.0023167431
50	0x3bf732ff	0.007543921
51	0xbbba7f1b	-0.0056914217
52	0x3c627d0b	0.013823758
53	0xbc26ce8f	-0.010181083
54	0xbaa5b7a8	-0.0012643235
55	0x3bd1ced1	0.0064028283
56	0x3af60a3f	0.0018771364
57	0xbf217208	-0.6306462
58	0x3b958d0b	0.004563933
59	0xbab7a835	-0.0014011922
60	0x3c1237df	0.0089244535
61	0xba351621	-0.00069078995
62	0xbec9efa7	-0.39440653
63	0xba2f476a	-0.0006686362
64	0xbabfc22e	-0.0014630014
65	0xbd8875cf	-0.06663095
66	0x3a6bef57	0.0009000203
67	0x3de3d25e	0.11124109
68	0xbcd918c1	-0.026501061
69	0x3d614d52	0.05500538
70	0xbf05a04a	-0.52197707
71	0xba3259ff	-0.00068035716
72	0x3edda29d	0.43288127
73	0x386d8388	5.66277e-05
74	0x3b089183	0.0020838685
75	0x3f1e30b3	0.6179306
76	0x39e653d5	0.00043931478
77	0xbe5b053f	-0.2138872
78	0xba04b986	-0.00050630455
79	0x38e4e354	0.000109142304
80	0xbf476c3c	-0.7789953
81	0xbb411160	-0.002945982
82	0xbccc83da	-0.024965215
83	0xba15bd48	-0.0005712104
84	0xbaa98208	-0.0012932429
85	0xbd4a24ed	-0.04935162
86	0xbb8f38c9	-0.004370783
87	0xbe92a840	-0.2864399
88	0xba4368d5	-0.0007454281
89	0x3b61586a	0.0034384974
90	0x3a86e316	0.0010291066
91	0x3ae3763c	0.0017353962
92	0x3f23afb5	0.6393998
93	0x3b3fd63f	0.0029271988
94	0xbbdc3831	-0.0067205657
95	0xbe085b72	-0.13316134
96	0xbbe19e8c	-0.0068853553
97	0xbaac4f20	-0.001314614
98	0xbc8def68	-0.017326072
99	0xbc8e674e	-0.017383244
100	0x3f4588f0	0.77162075
101	0xbb196e73	-0.002341178
102	0xbe28245e	-0.16420123
103	0xbaa68527	-0.0012704477
104	0xb8eb2f1a	-0.000112144466
105	0x3b3bf600	0.0028680563
106	0x37d1b09d	2.4996983e-05
107	0xbf862d8a	-1.0482647
108	0x3a3f3e3a	0.0007295344
109	0xb9fdee75	-0.00048433585
110	0xba66e2e2	-0.0008807612
111	0x3c3d1725	0.011541163
112	0xbc8c93a6	-0.017160248
113	0x3b11c144	0.002224044
114	0x3ba9573f	0.0051678712
115	0xbf6b5fa2	-0.919428
116	0x3a08f427	0.000522437
117	0xbe26b8cf	-0.16281436
118	0x391bc79d	0.00014856314
119	0x3abfb261	0.0014625305
120	0xbb2ae083	-0.002607376
121	0xba7472e2	-0.000932498
122	0xbf03a11a	-0.51417696
123	0xbb73326f	-0.0037108918
124	0xbadfcd7f	-0.0017074792
125	0xbe293c2d	-0.16526861
126	0x3c0f121e	0.008732347
127	0xbe6f5263	-0.23371272
128	0x3bcc2b50	0.006230749
129	0xba0480a4	-0.00050545693
130	0xbcb95d06	-0.022627365
131	0xba6981c8	-0.00089075835
132	0xbf3d62c5	-0.73978835
133	0xbc08e5eb	-0.008355598
134	0xb9fad4ba	-0.0004784221
135	0xbce9e6c2	-0.028552417
136	0x3b43ae06	0.0029858365
137	0xbd8d1897	-0.06889456
138	0xbb29a0fd	-0.002588331
139	0x3bd3c689	0.006462876
140	0x3be471d6	0.006971578
141	0xbb3e7384	-0.0029060552
142	0x3f2a0484	0.6641314
143	0xbaac9f19	-0.0013169973
144	0x3c0b4f72	0.008502828
145	0xbdbf9678	-0.093548715
146	0xbb8cea69	-0.004300405
147	0x3de707a6	0.11280756
148	0x3b75e3ad	0.0037519739
149	0xbbb10772	-0.005402499
150	0xbf523d39	-0.8212467
151	0xb9f6d610	-0.00047080265
152	0xbc9b9d8d	-0.018996025
153	0xb92ba7e5	-0.00016370376
154	0xb91e662e	-0.00015106119
155	0xbf0e93b6	-0.5569414
156	0x39fae478	0.00047853938
157	0xbe44fd26	-0.19237193
158	0x388528b2	6.349514e-05
159	0x394c39e8	0.00019476528
160	0xbaf03d04	-0.0018328731
161	0x3b0ab813	0.0021166846
162	0xbf1ae5f3	-0.60507125
163	0x3acc6ae5	0.0015595822
164	0x38976d7d	7.220635e-05
165	0xba0f5b56	-0.0005468627
166	0x3a13e697	0.00056419655
167	0x3c149366	0.009068346
168	0xbaf5f2e8	-0.0018764408
169	0xbb340a9e	-0.0027472149
170	0xbb806a10	-0.0039188936
171	0xbc605eb8	-0.013694458
172	0x3ca33422	0.01992232
173	0x3cd41ee3	0.025893634
174	0xbbee93e3	-0.007280813
175	0x3e5a915f	0.21344517
176	0xba9d4691	-0.001199918
177	0xbdaf2142	-0.08551265
178	0x3b88a93b	0.0041705645
179	0x3b14d43d	0.0022709512
180	0xba7a669c	-0.0009552033
181	0x39eb4621	0.00044874943
182	0x400dcaf7	2.215513
183	0xb9a8c07e	-0.00032186875
184	0x3951afed	0.0001999733
185	0x3d6cf6b5	0.057852466
186	0x3c906d4a	0.017630238
187	0xbc730f76	-0.014835229
188	0x3a272e95	0.00063774857
189	0xb932c61e	-0.00017049207
190	0x3d919c12	0.07109846
191	0xbb6a0400	-0.003570795
192	0xbd529131	-0.051407997
193	0x3bc3aa61	0.0059712385
194	0xbc2ccf48	-0.010547467
195	0xbe87ffe3	-0.26562414
196	0x3c075922	0.008260997
197	0x3dbcdeab	0.09222158
198	0x3c58bb2d	0.01322822
199	0xbc7d64e2	-0.015465947
200	0xbbe4c580	-0.0069815516
201	0xbc1d13b8	-0.009587221
202	0xbdec9a53	-0.115528725
203	0xba0df896	-0.00054157653
204	0x3c807345	0.015679965
205	0x3eedc81a	0.46441728
206	0x3a0912f7	0.0005228961
207	0x3ef96085	0.4870645
208	0xbaaffbaa	-0.0013426442
209	0x3a0cbe88	0.00053689675
210	0xbd6186cd	-0.055060197
211	0x3c0bc749	0.0085314
212	0x3e1549e6	0.14578971
213	0xbcd5e412	-0.026109729
214	0x3d2836ed	0.041068006
215	0x3985f35d	0.00025549057
216	0xbc9c161b	-0.01905351
217	0xbd06ab87	-0.032878425
218	0xbc719c0b	-0.014746676
219	0xbb648d42	-0.0034874235
220	0xbb24bdfa	-0.002513765
221	0xbba33c2b	-0.004981538
222	0x3ca9270b	0.0206485
223	0x3bf27ca9	0.0074001146
224	0xb88d65d1	-6.742369e-05
225	0x3e17c2e5	0.1482044
226	0x3c81ced2	0.01584569
227	0xbdcae285	-0.099064864
228	0x3b6bcca4	0.003598013
229	0xbbb275d9	-0.0054461774
230	0xba97f145	-0.001159229
231	0x3d6737b8	0.056449622
232	0xbc09f7eb	-0.008420925
233	0x3d642fd5	0.05570968
234	0xbc0e8f58	-0.008701168
235	0x3ca6590f	0.020306138
236	0xbaae3aef	-0.001329271
237	0xbf38f784	-0.7225268
238	0xb988d54b	-0.00026098857
239	0xba19fdcf	-0.0005874307
240	0xba85cf8d	-0.001020895
241	0xbb068b22	-0.0020529707
242	0x3a8ac345	0.0010586759
243	0x3b402463	0.0029318563
244	0xbc1dbe18	-0.009627841
245	0xbe07c2b8	-0.13257873
246	0xbb4c34cb	-0.0031159397
247	0xbcf7ac64	-0.03023357
248	0xbc5d96ba	-0.013524706
249	0x3c91af02	0.017783646
250	0xbd476d92	-0.04868848
251	0xba69d922	-0.00089206
252	0x3dcc76ca	0.09983595
253	0xbd00e9be	-0.031472914
254	0xbdb72e9c	-0.08944437
255	0xbef7f820	-0.48431492

g.0.bias f4 [128]
0	0xbf9c6e11	-1.222109
1	0xbedfa763	-0.43682393
2	0xbf259511	-0.6468058
3	0xbf8c9d10	-1.0985432
4	0xbfaca77c	-1.3488612
5	0xbe190f6e	-0.14947292
6	0xbf951846	-1.1648033
7	0xbefabb5b	-0.48971066
8	0xbfb7c427	-1.4356736
9	0xbf8ccadc	-1.0999408
10	0xbde718a3	-0.11283996
11	0xbf920057	-1.1406354
12	0x3f8bfb45	1.0936056
13	0xbf4fba56	-0.811437
14	0xbfa17274	-1.2613053
15	0xbf8d44a0	-1.1036568
16	0xbdd7a457	-0.10529392
17	0x3fadb7f3	1.3571762
18	0xbf98b4c7	-1.1930169
19	0xbf0c3151	-0.5476275
20	0xbf34974b	-0.70543355
21	0xbf26e2ab	-0.6518962
22	0xbde1c012	-0.11022963
23	0xbf2845fd	-0.65731794
24	0xbf94e4cd	-1.1632324
25	0x3f969ecb	1.176721
26	0xbfa33f49	-1.2753688
27	0x3f9487d8	1.1603956
28	0xbf9efa34	-1.2420106
29	0x3f1f5fab	0.6225535
30	0xbf8fd434	-1.1236634
31	0xbf79f463	-0.9763853
32	0xbfa3240f	-1.2745379
33	0xbd8d5dce	-0.069026574
34	0xbe8cf5b9	-0.27531222
35	0x3f8b8bf9	1.0902091
36	0xbe76b003	-0.2409058
37	0xbe8caa16	-0.27473515
38	0xbed2665d	-0.41093722
39	0xbf9539eb	-1.16583
40	0x3ef77558	0.48331714
41	0xbfb22aa2	-1.391926
42	0xbf4cde21	-0.8002644
43	0xbe59ed26	-0.21281871
44	0xbdd5e92e	-0.10444866
45	0x3f724452	0.946355
46	0xbecf6d91	-0.4051328
47	0xbf994944	-1.1975484
48	0xbd534c47	-0.051586416
49	0xbf144d82	-0.5793077
50	0xbf492805	-0.7857669
51	0xbfc1ef8d	-1.515123
52	0xbe06f905	-0.13180931
53	0x3f860115	1.046908
54	0xbf01c223	-0.50686854
55	0xbf906e92	-1.1283743
56	0xbe0932ce	-0.13398287
57	0xbf8cc099	-1.0996276
58	0xbf4f2d2e	-0.80928314
59	0xbf995cab	-1.1981405
60	0xbf828af9	-1.0198661
61	0xbf347c63	-0.705023
62	0xbf7d96c1	-0.9905816
63	0xbf229e8b	-0.6352317
64	0xbf4ac140	-0.79201126
65	0xbf061c7a	-0.523872
66	0xbf701fb2	-0.93798363
67	0xbed146de	-0.4087438
68	0xbfa833be	-1.314079
69	0xbf0ccb65	-0.54997855
70	0xbf3c4618	-0.73544455
71	0xbf8feb93	-1.1243767
72	0xbf9a0fa3	-1.2036022
73	0xbf93df13	-1.1552452
74	0xbdd7f4ef	-0.10544764
75	0xbf950cfd	-1.1644589
76	0xbf8ac2e7	-1.084073
77	0xbe2baae4	-0.16764408
78	0xbe144f99	-0.14483489
79	0xbdb8bb86	-0.09020142
80	0x3fa4a6d1	1.2863408
81	0xbf9e5bba	-1.2371743
82	0xbfa21b95	-1.2664667
83	0xbf7973a8	-0.974421
84	0xbefa05a6	-0.48832434
85	0xbf787bc6	-0.97063863
86	0xbf008032	-0.5019561
87	0xbf9af2a7	-1.2105302
88	0xbed4849e	-0.4150743
89	0xbf71542a	-0.9426905
90	0xbf999469	-1.1998416
91	0xbebe503e	-0.37170595
92	0xbed4ada6	-0.41538733
93	0xbf95f556	-1.1715496
94	0xbf9c86fa	-1.2228692
95	0x3ef877a0	0.48528767
96	0xbf97374f	-1.1813754
97	0xbf879345	-1.0591818
98	0xbe859599	-0.26090696
99	0xbf95e40a	-1.1710217
100	0xbfb829fa	-1.438781
101	0xbf4bbd66	-0.79585874
102	0x3f9076f2	1.1286299
103	0xbf69e573	-0.91365737
104	0xbdd59658	-0.104290664
105	0x3e35ced9	0.17754687
106	0xbe232cbf	-0.15935038
107	0xbe6c85ba	-0.23097888
108	0xbf87db8e	-1.0613878
109	0xbf8fb093	-1.1225761
110	0xbfacbd40	-1.3495255
111	0xbe629b1b	-0.2212948
112	0xbe093ec3	-0.13402848
113	0xbe65b37d	-0.2243175
114	0xbee0386d	-0.4379305
115	0xbecf4789	-0.40484264
116	0xbfaea781	-1.3644868
117	0x3f227051	0.6345263
118	0xbf948726	-1.1603744
119	0xbfa469e3	-1.2844814
120	0xbf32238b	-0.69585484
121	0x3f65c6b1	0.89756304
122	0xbf1e87ec	-0.6192615
123	0xbe17d059	-0.14825572
124	0xbe14cb4e	-0.1453068
125	0xbfa6b6ab	-1.3024496
126	0xbf8b42c1	-1.0879747
127	0xbf14b42e	-0.5808743

g.2.weight f4 [128, 128]
0	0xbe2006e0	-0.15627623
1	0xbe25b042	-0.16180518
2	0xbcd15121	-0.02555138
3	0xbd59a2a9	-0.05313364
4	0xbd9bed5a	-0.076136306
5	0x3ca40068	0.020019725
6	0xbcc2aedc	-0.02376502
7	0xbe094ff0	-0.134094
8	0x3c28efff	0.010311126
9	0xbd473ad4	-0.048640087
10	0x3c8619e2	0.016369764
11	0xbe0d29cb	-0.13785474
12	0xbdb10567	-0.086436085
13	0x3d9530ef	0.07284724
14	0xbd6651d9	-0.0562304
15	0xbd007321	-0.031359795
16	0xbdb7f805	-0.08982853
17	0xbcc30ebb	-0.023810735
18	0xbd07ecf4	-0.03318496
19	0xbdc5f8de	-0.09666608
20	0xbd698b56	-0.057017647
21	0xbd120d8b	-0.035657447
22	0xbd216403	-0.03940202
23	0xbd18a1ce	-0.037263684
24	0x3d95e44d	0.073189355
25	0x3c175ed2	0.0092389155
26	0xbde106f8	-0.10987657
27	0xbd392fcc	-0.0452116
28	0xbdc3ac65	-0.09554366
29	0xbd62a69e	-0.05533468
30	0xbdf6f621	-0.12058664
31	0xbdbb1456	-0.09134738
32	0xbc45f270	-0.012081727
33	0xbbf2ceec	-0.007409921
34	0xbd98082e	-0.07423435
35	0xbd9cd8ef	-0.07658564
36	0xbe364ffd	-0.1780395
37	0x3d0a3d0f	0.033749636
38	0x3d92bc25	0.07164792
39	0xbe09a499	-0.13441695
40	0xbb6b07c3	-0.003586278
41	0xbc55924b	-0.013035367
42	0xbd8c8a8b	-0.068623625
43	0xbcf1bfdb	-0.02951043
44	0x3db48ec3	0.08816292
45	0xbd7af21c	-0.06126605
46	0xbd300846	-0.04297664
47	0xbdc89dd3	-0.097957276
48	0xbda0948f	-0.07840835
49	0x3d312fb6	0.04325839
50	0xbd39473f	-0.04523396
51	0x3d5b41fa	0.053529717
52	0x3d2ee825	0.04270186
53	0xbc83068d	-0.015994335
54	0x3bbbb5eb	0.0057284734
55	0xbe0a97d5	-0.13534482
56	0xbc97a277	-0.018510086
57	0xbe4ff02d	-0.20306464
58	0xbd4c36b4	-0.049856856
59	0xbdada898	-0.08479422
60	0xbdbe1fe3	-0.09283426
61	0xbd255348	-0.040362626
62	0x3d47a0d3	0.04873736
63	0xbdb8b6c7	-0.09019237
64	0xbd3e0403	-0.046390545
65	0xbe2bbb8a	-0.16770759
66	0xbdb60f10	-0.08889592
67	0xbd72951b	-0.05922423
68	0xbc6b99b2	-0.014379906
69	0xbe7fd418	-0.24983251
70	0xbde82954	-0.11336008
71	0x3c8582a4	0.016297646
72	0xbd5018be	-0.050804846
73	0xbd1f4f63	-0.03889407
74	0xbc9f7bc0	-0.019468188
75	0xbcf25281	-0.029580357
76	0xbdc4b82b	-0.0960544
77	0xbe4a21a5	-0.19739397
78	0x3d168609	0.03674892
79	0x3cf63628	0.03005512
80	0x3bd6bba7	0.0065531316
81	0x3ce066fc	0.027392857
82	0x3c972072	0.018448088
83	0xbdc35de9	-0.09539396
84	0xb9cff7bc	-0.00039666693
85	0xbda17096	-0.07882802
86	0xb9a5a1ca	-0.00031591795
87	0xbe14e750	-0.14541364
88	0xbd3cc0ce	-0.04608231
89	0xbe2f955e	-0.17146823
90	0x3bb7b711	0.00560654
91	0xbe40e121	-0.1883588
92	0xbd2d1294	-0.042254046
93	0x3d28de7c	0.041227803
94	0xbc8a3fc3	-0.016876107
95	0xbd3888ff	-0.045052525
96	0x3d647656	0.055776916
97	0xbd9d5816	-0.07682817
98	0xbd1fc120	-0.039002538
99	0xbd585cca	-0.052822866
100	0xbd9c4325	-0.07629994
101	0xbca14829	-0.019687729
102	0xbc3330fa	-0.01093697
103	0xbcb2f3d5	-0.021844784
104	0xbda40a0b	-0.08009728
105	0xbce54252	-0.027985726
106	0xbca6fee1	-0.020385208
107	0xbd714745	-0.05890586
108	0xbceff17d	-0.029289955
109	0x3c68e9f3	0.014215934
110	0xbd65479b	-0.05597649
111	0xbd54c3f5	-0.05194469
112	0xbd8c1ce7	-0.0684145
113	0xbdc71994	-0.097216755
114	0xbe09220a	-0.13391891
115	0x3d876f38	0.0661301
116	0xbc974926	-0.018467497
117	0x3b836488	0.004009787
118	0x3d1b0372	0.037845083
119	0xbdabaf89	-0.0838309
120	0xbd605885	-0.05477192
121	0x3d7fa9df	0.06241786
122	0xbdcca712	-0.09992804
123	0x3d15b64a	0.036550798
124	0x3da28a6d	0.07936559
125	0x3c980ff1	0.018562289
126	0xbe5e8350	-0.21729779
127	0x3c8c74a6	0.017145466
128	0xbe4ecb57	-0.20194755
129	0xbe65d432	-0.22444227
130	0xbe92aa11	-0.28645375
131	0xba8d509c	-0.001078147
132	0x3d76d46a	0.060261168
133	0x3d7a8a1d	0.06116687
134	0x3d475e23	0.04867376
135	0x3d10ad69	0.035321627
136	0x3d996b9f	0.0749123
137	0xbcadc00a	-0.021209735
138	0xbdbd493d	-0.09242485
139	0xbe4efacf	-0.20212863
140	0xbd662611	-0.056188647
141	0xbda32cb0	-0.07967508
142	0x3ca8c0c4	0.02059973
143	0x3d4efa56	0.050531708
144	0xbce1d6eb	-0.027568301
145	0xbd476edb	-0.048689704
146	0x3d66cf8a	0.05635027
147	0x3ca0845f	0.01959437
148	0xbd8ee62b	-0.06977495
149	0xbed436ed	-0.41448155
150	0x3c48878b	0.012239347
151	0x3de58d06	0.11208539
152	0x3c9abe23	0.018889492
153	0xbe075b49	-0.13218416
154	0xbe9bd128	-0.3043301
155	0xbce8f1e0	-0.028435647
156	0x3d7a3721	0.06108773
157	0xbe042f6b	-0.12908714
158	0x3d7d6a95	0.061869223
159	0xbcf01f9a	-0.029311944
160	0x3cdf6849	0.027271407
161	0xbb461e91	-0.0030230621
162	0x3d5f7451	0.054554287
163	0xbe1cfe75	-0.15331443
164	0xbeb4e3fb	-0.35330185
165	0x3d7aa118	0.061188787
166	0x3d828c3f	0.06374406
167	0x3cae7d9d	0.021300131
168	0x3d0fa4f1	0.03506941
169	0xbdab7266	-0.08371429
170	0x3c766c4a	0.015040467
171	0xbdfee7a8	-0.12446529
172	0x3b7af2e2	0.0038291742
173	0xbdab0ed2	-0.08352436
174	0xbbd2eb31	-0.0064367284
175	0xbdfc616d	-0.1232327
176	0xbd5e9a59	-0.054346416
177	0xbc6041e1	-0.013687582
178	0xbe481aab	-0.19541423
179	0xbe075e95	-0.13219674
180	0x3c0dc65e	0.008653251
181	0xbdd55e00	-0.1041832
182	0xbedb49bb	-0.4282969
183	0x3b3200ac	0.0027161045
184	0xbdd34137	-0.10315173
185	0xba5fe6be	-0.0008541158
186	0x3d65f91d	0.056145776
187	0x3d4d0fa0	0.05006373
188	0x3d97f898	0.07420462
189	0xbd1655d4	-0.036702946
190	0x3da699f2	0.081348315
191	0xbca9d2f1	-0.020730468
192	0xbef80f4c	-0.4844917
193	0x3c9b5bee	0.018964734
194	0x3d58f0a0	0.052963853
195	0xbe103aa6	-0.14084873
196	0xbe6063ac	-0.21913022
197	0xba40314a	-0.00073315634
198	0x3dc0aaaf	0.09407555
199	0xbd317d1f	-0.043332215
200	0x3cd2b138	0.02571927
201	0x3db49931	0.088182814
202	0x3ce4c3d8	0.027925417
203	0x3c735789	0.014852413
204	0x3d6c420f	0.057680186
205	0x3d87deee	0.06634317
206	0xbd405470	-0.046955526
207	0xbc8a5d17	-0.016890092
208	0xbcf14906	-0.029453766
209	0x3d33e24e	0.043916993
210	0xbe2c497f	-0.16824912
211	0x3c81eef6	0.015861016
212	0xbd9b467e	-0.07581805
213	0xbdcc17a3	-0.09965446
214	0xbd3776ac	-0.04479091
215	0xbdbdc8da	-0.09266825
216	0x3bfeb1b6	0.0077726496
217	0xbd705b0c	-0.05868058
218	0xbdad5112	-0.084627286
219	0xbc600aa7	-0.013674415
220	0xbd43d858	-0.047813743
221	0x3d8e96dc	0.06962368
222	0x3cf18975	0.02948449
223	0x3cd7a0dd	0.026321823
224	0x3d9a7e95	0.07543675
225	0x3bf4285c	0.0074511003
226	0x3c98401c	0.018585257
227	0xbc37606c	-0.011192422
228	0x3d884b10	0.06654942
229	0xbd6eeb28	-0.05832973
230	0xbd8902fc	-0.06690022
231	0xbdce67bb	-0.10078379
232	0xbd00a7f7	-0.031410184
233	0xbd92e630	-0.07172811
234	0xbb690d6f	-0.0035560986
235	0xbf375f6b	-0.7162997
236	0xbb8ab882	-0.004233421
237	0x3d69c04d	0.057068158
238	0xbde62697	-0.11237829
239	0xbd880eb4	-0.066434294
240	0xbc589127	-0.013218201
241	0xbd922f72	-0.07137956
242	0x3cac9149	0.021065371
243	0xbcaaeda5	-0.02086527
244	0xbe8d1765	-0.2755691
245	0xbdd766da	-0.10517664
246	0xbaed3f8d	-0.0018100605
247	0x3b836ad7	0.004010539
248	0x3dcf8732	0.10133208
249	0xbd883f0f	-0.066526525
250	0xbe3e2386	-0.18568239
251	0xbc29c592	-0.010362046
252	0x3d0a6df9	0.033796284
253	0xbd8d61a7	-0.06903391
254	0xbc98ad85	-0.018637428
255	0xbc0f562f	-0.008748575

g.2.bias f4 [128]
0	0x3dae91ad	0.08523879
1	0xbde4311d	-0.1114218
2	0xbe3e3a40	-0.18576908
3	0xbe880b2a	-0.26571018
4	0xbdc0f8ba	-0.09422441
5	0xbf8c8222	-1.0977213
6	0xbe97a40a	-0.2961734
7	0xbe7f8645	-0.24953564
8	0xbda8899a	-0.082293704
9	0xbbe12b52	-0.0068716193
10	0x3e4f9f2a	0.2027556
11	0x3da337a6	0.079695985
12	0xbe2a6e8e	-0.16643736
13	0x3cc3f654	0.02392117
14	0xbe623031	-0.22088696
15	0xbe6c0672	-0.23049334
16	0x3d1c58e7	0.03817072
17	0xbd716dc3	-0.058942568
18	0x3d19bb28	0.037532
19	0xbd74b1d2	-0.059739895
20	0xbe82f36b	-0.25576338
21	0xbf0b6e34	-0.5446503
22	0xbd419cf0	-0.047268808
23	0xbd74a599	-0.05972824
24	0xbeb3bf4a	-0.3510688
25	0xbdffaf9f	-0.12484669
26	0xbe16ac53	-0.14714174
27	0xbe3de523	-0.1854444
28	0xbda6ced5	-0.08144919
29	0xbe315fa9	-0.17321648
30	0xbd8f638e	-0.070014104
31	0xbe0d0ac6	-0.13773641
32	0xbf5b9155	-0.85768634
33	0xbf0bf170	-0.5466528
34	0x3f030093	0.5117275
35	0xbd70ad46	-0.058758996
36	0xbcf1549c	-0.02945929
37	0x3d206f32	0.039168544
38	0xbedb0868	-0.4277985
39	0xbdfeaf7c	-0.12435815
40	0xbddc1e7a	-0.107480004
41	0xbf6e70b0	-0.931407
42	0xbdea5269	-0.114415
43	0xbd994e8b	-0.07485684
44	0x3d3b30f3	0.04570098
45	0xbf8fecef	-1.1244181
46	0x3d45c7a1	0.048286084
47	0xbe833137	-0.25623485
48	0xbf07043b	-0.5274083
49	0x3d3e623c	0.046480402
50	0xbe85c87c	-0.2612952
51	0xbe0137d8	-0.12618959
52	0xbdd94d1e	-0.10610412
53	0x3d0cb868	0.03435555
54	0xbe1baee4	-0.15203434
55	0xbf53b149	-0.8269239
56	0xbf02324f	-0.50858015
57	0xbf1990cc	-0.5998657
58	0xbe64e439	-0.22352685
59	0xbdb86f1f	-0.0900557
60	0xbfa2f1bd	-1.2730023
61	0xbe3b3c54	-0.18284732
62	0x3f6e0595	0.9297727
63	0xbe47b714	-0.19503433
64	0xbea02c22	-0.3128367
65	0xbe37d640	-0.17952824
66	0xbe4da039	-0.20080651
67	0xbe27cd71	-0.16386963
68	0xbf36b540	-0.71370316
69	0x3e6ee196	0.23328242
70	0x3e4ea71b	0.20180933
71	0xbe84fae2	-0.25972658
72	0xbe35f7de	-0.17770335
73	0xbfaa4692	-1.3302786
74	0x3d85cfe5	0.06533793
75	0xbe1ab92f	-0.15109704
76	0xbe0e538e	-0.13899061
77	0x3ed13431	0.4086013
78	0xbe2e79d7	-0.17038666
79	0xbe6d65fc	-0.23183435
80	0xbe3da2a9	-0.18519081
81	0x3f837f59	1.0273238
82	0xbe9bee8a	-0.30455428
83	0x3c107ab3	0.008818316
84	0x3e98bc29	0.29831055
85	0xbe71f933	-0.23630218
86	0x3eb9cdad	0.3628973
87	0xbdd65635	-0.104656614
88	0xbec8fb03	-0.39254007
89	0xbe9bb778	-0.30413413
90	0xbe0f4048	-0.13989365
91	0xbe7f64ac	-0.24940747
92	0xbf8590bb	-1.0434793
93	0xbd8fecb9	-0.07027573
94	0xbe792b69	-0.24332966
95	0xbe9a0889	-0.30084637
96	0x3d32b2ac	0.043627426
97	0xbf967c64	-1.1756711
98	0xbdd1278d	-0.10212622
99	0xbdf49de2	-0.11944176
100	0x3ecdf1f0	0.40223646
101	0x3f8d179d	1.1022831
102	0xbf2e5324	-0.6809561
103	0xbdff00d1	-0.124513276
104	0xbe488fde	-0.19586131
105	0xbe8afd47	-0.2714636
106	0x394ff5ef	0.00019832676
107	0xbe92d246	-0.2867605
108	0xbe14e129	-0.14539017
109	0xbd67a09f	-0.056549665
110	0x3c2e0309	0.010620841
111	0xbca2fba5	-0.019895384
112	0x3daa4b02	0.08315088
113	0xbe16aecf	-0.14715122
114	0xbeb4fffe	-0.35351557
115	0xbd5e26f8	-0.054236382
116	0xbe1e466c	-0.15456551
117	0x3d09f54d	0.033681203
118	0xbaaf472a	-0.0013372649
119	0xbe668a15	-0.22513612
120	0xbe9527fd	-0.2913207
121	0x3e84b12d	0.25916424
122	0xbe9a105b	-0.30090603
123	0xbd9e4192	-0.0772735
124	0xbf9ebe28	-1.2401781
125	0xbe3b73b6	-0.18305859
126	0xbe483ddd	-0.19554849
127	0xbdfa9b47	-0.12236648

g.4.weight f4 [128, 128]
0	0xbc99104a	-0.018684525
1	0xbc6180ae	-0.01376359
2	0xbeade65c	-0.33964813
3	0xbe0bfc08	-0.13670361
4	0xbda3cd41	-0.079981335
5	0xbd720a43	-0.059091818
6	0xbe2d36fc	-0.16915506
7	0x3cf45bd3	0.029828941
8	0x3d1feadd	0.039042342
9	0xbd0f07b4	-0.034919456
10	0xbdb69059	-0.08914251
11	0xbc25c143	-0.010116878
12	0x3d3afae5	0.045649428
13	0xbd0c6ad6	-0.034281574
14	0x3d958d2a	0.073023155
15	0xbcf584d3	-0.029970562
16	0x3d27136d	0.04079001
17	0xbe13e25b	-0.14441817
18	0xbd2285a8	-0.039678246
19	0xbd10f9ec	-0.035394594
20	0xbcb289dc	-0.021794252
21	0xbdb86555	-0.090037026
22	0x3c5b6637	0.013391069
23	0x3dd0f170	0.102023005
24	0x3ce601cb	0.028077027
25	0xbd6e36ab	-0.058157604
26	0xbd13725d	-0.035997737
27	0xbce54bbb	-0.027990213
28	0xbc1eb720	-0.009687215
29	0xbd81ed6f	-0.06344115
30	0x3c664b1b	0.0140559925
31	0xbd8db156	-0.0691859
32	0xbdd43394	-0.103614
33	0xbd8b738c	-0.06809148
34	0xbd9b730c	-0.07590303
35	0xbc162d60	-0.009166092
36	0x3d90f571	0.07078064
37	0xbd4d3fa1	-0.05010951
38	0x3d8d89a7	0.06911021
39	0xbccccd4e	-0.02500024
40	0x3d99e5de	0.07514547
41	0xbe1bee03	-0.15227513
42	0xba349c0d	-0.00068897085
43	0xbd989452	-0.07450165
44	0xbc944049	-0.01809706
45	0xbdcbed76	-0.099574015
46	0xbbfb0bf1	-0.0076613356
47	0x3ce3ff8d	0.027831817
48	0xbd6544c8	-0.055973798
49	0xbd9d2efd	-0.07674978
50	0xbd2413ce	-0.04005795
51	0x3d10fdaf	0.03539818
52	0x3da2824a	0.07935007
53	0x3cc4c728	0.024020746
54	0x3d25c6e2	0.040472873
55	0x3d7219d1	0.05910665
56	0xbda53c93	-0.08068194
57	0xbd9f85b0	-0.07789171
58	0xbbc1b669	-0.0059116376
59	0xbd10649e	-0.035252206
60	0xbd613aa4	-0.054987565
61	0xbd37f9e3	-0.044916045
62	0x3c3d4c28	0.011553802
63	0x3cb2e422	0.021837298
64	0xbdc8cd67	-0.098048024
65	0x3df1745e	0.117897734
66	0xbd2131cb	-0.039354127
67	0x3c22213a	0.009895617
68	0x3d95c43e	0.07312821
69	0xbe38aabf	-0.18033884
70	0xbd91bb2a	-0.07115777
71	0x3c8e38bf	0.017361043
72	0xbc545002	-0.0129585285
73	0xbd7d9ca4	-0.061916962
74	0xbdd6481c	-0.104629725
75	0xbd249235	-0.040178496
76	0xbda4fe84	-0.080563575
77	0xbc3d169d	-0.011541036
78	0x3de47493	0.11155047
79	0x3d7a5107	0.06111243
80	0x3cb96d2a	0.022635061
81	0xbd9f1d42	-0.07769252
82	0x3dbd57f4	0.09245291
83	0x3d613e0a	0.054990806
84	0xbd35b233	-0.044359397
85	0xbd0c34c6	-0.034230016
86	0x3e1018ad	0.14071913
87	0xbd8f9a91	-0.07011903
88	0xbccb342e	-0.024805155
89	0xbd09f3bc	-0.03367971
90	0xbd516e34	-0.05113049
91	0xbca713d5	-0.020395199
92	0x3cc0197d	0.023449654
93	0x3d7fff45	0.062499303
94	0xbcaac167	-0.020844175
95	0xbd2525b7	-0.04031917
96	0xbd1ae9dd	-0.037820686
97	0xbd7259d9	-0.059167717
98	0xbc4fea33	-0.012690115
99	0xbb328b7c	-0.0027243784
100	0xbe4cba76	-0.19993004
101	0xbd8f516d	-0.069979526
102	0xbdb5d764	-0.08878973
103	0xb997b0af	-0.00028932604
104	0x3d9d283b	0.07673689
105	0xbd8d56a9	-0.06901295
106	0x3d8da7d7	0.069167785
107	0xbdd23ad4	-0.10265127
108	0xbdb3c166	-0.08777122
109	0x3dd9413a	0.10608144
110	0xbd527e6f	-0.051390108
111	0x3dbfaa51	0.09358657
112	0x3c1ba31f	0.00949934
113	0x3cadd960	0.021221817
114	0xbd3d94d2	-0.046284504
115	0x3cba379a	0.022731591
116	0x3cf8435d	0.030305559
117	0xbd26e562	-0.0407461
118	0x3c81f6d6	0.01586477
119	0xbd7d5216	-0.06184586
120	0x3c3e88a9	0.011629262
121	0xbcbec033	-0.023285007
122	0xbd8ad87c	-0.06779572
123	0xbd076ae3	-0.03306092
124	0xbd0d992b	-0.0345699
125	0xbbdafcdf	-0.0066829766
126	0x3c6c299c	0.014414217
127	0x3e2890d5	0.16461499
128	0x3b23079f	0.0024876369
129	0x3b0aede0	0.0021198913
130	0x3d688e42	0.056776293
131	0x3dc78254	0.09741655
132	0x3b555a42	0.0032555019
133	0xbf061241	-0.52371603
134	0x3e83cbef	0.25741526
135	0xbe3dfba4	-0.18553025
136	0xbd2bd285	-0.041948814
137	0xbc6379db	-0.013884033
138	0xc0812c43	-4.036653
139	0x3da8d467	0.082436375
140	0xbd5fbdd9	-0.054624412
141	0xbbb767f0	-0.005597107
142	0x3ea0f551	0.31437162
143	0x3c518471	0.012787924
144	0x3d9fb2bd	0.077977635
145	0xbcec849d	-0.028871829
146	0xbe3f39cc	-0.18674392
147	0xbbc06cca	-0.0058723437
148	0xbc793270	-0.015209779
149	0x3e80d1c8	0.2516005
150	0xbb13ca5e	-0.002255104
151	0x3c19c0ea	0.009384373
152	0x3bc5ae23	0.0060327216
153	0x3d9fb015	0.07797257
154	0xbd2829dc	-0.041055545
155	0x3cbf31d7	0.023339195
156	0x3db8c1e8	0.0902136
157	0x3aa344e0	0.001245644
158	0x3d00d113	0.03144939
159	0xbc1f595f	-0.009725898
160	0x3dc3ce61	0.09560848
161	0xbda33b0a	-0.07970245
162	0x3e9ac115	0.30225435
163	0x3d808622	0.06275584
164	0xbe8f9cab	-0.28049216
165	0x3d1cac50	0.038250268
166	0xbc9930ef	-0.018700091
167	0x3d98fa27	0.07469588
168	0x3d0e9426	0.034809254
169	0xbf7c42a0	-0.9853916
170	0xbe1cf77e	-0.15328786
171	0x3d8ae283	0.06781485
172	0xbe012ec4	-0.12615496
173	0xbf84233f	-1.0323256
174	0xbda18489	-0.07886607
175	0x3d312fbb	0.04325841
176	0xbe809956	-0.25116986
177	0x3d487985	0.048944015
178	0x3dba564e	0.090984926
179	0x3db77ea5	0.089597024
180	0xbd45e16a	-0.048310675
181	0xbcd21c73	-0.025648331
182	0x3cb7c8fc	0.022434704
183	0x3e53eac7	0.20695029
184	0xbd4ffaf4	-0.050776437
185	0x3ea3a1e1	0.3195944
186	0xbbfafdf4	-0.007659668
187	0xbebdf90d	-0.37104073
188	0xbe6fad6b	-0.23405997
189	0x3d6c73b9	0.05772755
190	0x3e9ccd05	0.30625167
191	0xbd2f31f2	-0.04277224
192	0xbea20c45	-0.31649986
193	0xbd3ced25	-0.046124596
194	0xbc7d25f9	-0.015450948
195	0x3d916f3b	0.07101294
196	0x3e169655	0.14705785
197	0x3cfe5648	0.031047001
198	0xbf8330a7	-1.0249223
199	0x3dbc671c	0.09199354
200	0xbd25397d	-0.04033803
201	0x3e221d18	0.15831411
202	0x3e2be60f	0.16786979
203	0xbd0c7e56	-0.03430017
204	0x3d825033	0.06362953
205	0x3d3c0f3a	0.04591296
206	0x3d03be75	0.032164056
207	0x3d8db417	0.06919115
208	0x3d364e5e	0.04450833
209	0xbf4c75aa	-0.7986704
210	0x3d95c7e8	0.0731352
211	0xbcf5ead2	-0.030019198
212	0xbf2adb3a	-0.66740763
213	0x3d1d9cb7	0.038479533
214	0xbeb77c31	-0.35836938
215	0xbd2d4513	-0.042302202
216	0x3ce9489d	0.028477008
217	0xbdb346ff	-0.08753776
218	0x3d2a0a29	0.041513596
219	0x3d7f94ac	0.062397644
220	0xbe1c0dd5	-0.15239652
221	0xbd906f22	-0.07052447
222	0xbe0b1461	-0.13581993
223	0x3d3597f2	0.04433436
224	0x3db50c94	0.0884029
225	0xbeffe991	-0.49982885
226	0xbd1bc65b	-0.038030963
227	0x3c99934d	0.018746996
228	0xbee01586	-0.4376642
229	0x3ee9a3b1	0.456327
230	0x3eb30b80	0.3496971
231	0xbcaf2fd0	-0.021385103
232	0xbd6ae432	-0.05734653
233	0xbd4df115	-0.050278742
234	0x3dc82697	0.097729854
235	0xbe95d398	-0.29262996
236	0x3a4ef453	0.00078946835
237	0xbc80658b	-0.01567342
238	0x3da6b08e	0.08139144
239	0x3cb672eb	0.022271594
240	0x3d8f57d2	0.06999172
241	0x3d2c65cc	0.04208927
242	0x3d3465f9	0.04404256
243	0x3d16048f	0.03662544
244	0x3d77dc3b	0.060512763
245	0xbccea504	-0.02522517
246	0xbd869498	-0.06571311
247	0x3deba87c	0.11506745
248	0x3e4bef13	0.19915418
249	0x3dde7b72	0.10863389
250	0x3e99ad45	0.30015007
251	0x3dfdc714	0.12391487
252	0xbf286236	-0.6577486
253	0x3d016b93	0.03159673
254	0x3d96b374	0.07358447
255	0xbe02b05d	-0.1276259

g.4.bias f4 [128]
0	0xbe58ec40	-0.21183872
1	0x3f9ba26e	1.2158945
2	0x3eb7ddec	0.359115
3	0xbe6e71f6	-0.2328566
4	0xbf32498a	-0.6964346
5	0x3f8e5192	1.1118643
6	0xbea5eb7a	-0.32406217
7	0xbf372fdd	-0.7155741
8	0xbe6270e3	-0.22113375
9	0xbf0b6a65	-0.5445922
10	0xbe0cc024	-0.13745171
11	0x3f813b9d	1.0096318
12	0xbe918c31	-0.2842727
13	0xbec51ea8	-0.3849995
14	0x3f5c1381	0.8596726
15	0xbf05927d	-0.5217665
16	0x3f1fca7e	0.62418354
17	0xbefb3fc5	-0.4907209
18	0x3f42d1d0	0.761014
19	0xbe5dc048	-0.2165538
20	0x3f88420c	1.0645156
21	0xbf022fef	-0.5085439
22	0x3f700326	0.93754804
23	0xbeb0698f	-0.34455535
24	0x3fac173f	1.3444594
25	0xbf1fd0c8	-0.6242795
26	0xbf158b3f	-0.584156
27	0xbe649776	-0.22323403
28	0xbe6f1799	-0.23348846
29	0x3f0ad4e0	0.5423107
30	0x3f864ab1	1.0491544
31	0xbed2a908	-0.41144586
32	0x3f4763a7	0.7788643
33	0xbf14cfc8	-0.5812955
34	0x3f773f2c	0.9658077
35	0xbe871b1f	-0.2638788
36	0xbdf3d86f	-0.11906516
37	0xbf392e24	-0.7233603
38	0xbee6dce6	-0.45090407
39	0xbed560a6	-0.416753
40	0xbf423542	-0.75862515
41	0xbf02717e	-0.50954425
42	0xbda9d716	-0.082929775
43	0xbf46065f	-0.7735347
44	0xbe2dc768	-0.16970599
45	0x3f2a10b4	0.66431737
46	0xbe334863	-0.17508082
47	0xbed9e592	-0.4255796
48	0xbf54fb0b	-0.8319556
49	0xbe89a5a4	-0.26884186
50	0xbe841b9e	-0.2580232
51	0xbebc80ba	-0.3681696
52	0x3f4fca56	0.81168115
53	0xbf058676	-0.52158296
54	0xbf3169e0	-0.6930218
55	0x3e245df2	0.16051462
56	0xbe8f9e61	-0.2805052
57	0x3fabf1ac	1.3433127
58	0xbe80afac	-0.25134027
59	0x3f90b51e	1.1305273
60	0xbeda1837	-0.425966
61	0xbf412ae6	-0.7545608
62	0xbe83e4c5	-0.25760475
63	0xbe88e5a5	-0.26737705
64	0xbee65a4f	-0.44990775
65	0xbe8d3ecc	-0.27586973
66	0x3f9fc8bc	1.2483134
67	0xbe25b3ba	-0.16181841
68	0x3f025cb5	0.5092271
69	0xbeac2a18	-0.33625865
70	0xbeda57b8	-0.4264505
71	0xbeff1e9a	-0.49828035
72	0xbe98fd3c	-0.29880702
73	0xbe8ebadf	-0.27876946
74	0xbedc454b	-0.43021616
75	0x3e697e72	0.22802141
76	0xbe0f633a	-0.14002696
77	0xbf278953	-0.65443915
78	0xbf03d0b0	-0.51490307
79	0xbf05b418	-0.52227926
80	0x3f7a1549	0.9768873
81	0xbe65c425	-0.22438104
82	0xbf2b66fd	-0.6695402
83	0xbedcc2b5	-0.431173
84	0xbf209f33	-0.6274292
85	0xbed4acdb	-0.41538128
86	0xbe999069	-0.2999299
87	0xbe34ee9c	-0.17669147
88	0xbf25167f	-0.6448745
89	0xbee52cb4	-0.44760668
90	0xbe73983b	-0.2378854
91	0x3f3b41a8	0.7314706
92	0xbea8ea43	-0.32991228
93	0xbe5c26cb	-0.21499173
94	0x3f12908a	0.572518
95	0xbecb447c	-0.39700687
96	0x3f8b4d77	1.0883015
97	0x3f49caa7	0.7882485
98	0xbea5178d	-0.3224453
99	0xbe9851c4	-0.29749882
100	0xbf214607	-0.6299748
101	0xbf2cc436	-0.67486894
102	0xbeeaaaeb	-0.45833525
103	0x3f05e83e	0.523075
104	0x3f09856a	0.537192
105	0xbf364a11	-0.71206766
106	0x3f5239ef	0.8211965
107	0xbe86a7bf	-0.26299855
108	0xbe2d3863	-0.16916041
109	0xbe9eb0dc	-0.30994308
110	0x3f3d48e4	0.7393935
111	0xbefc258e	-0.49247402
112	0xbefeb25c	-0.49745452
113	0xbf2896ff	-0.658554
114	0xbe861a0b	-0.26191744
115	0x3f89d98a	1.0769513
116	0x3f4d1a45	0.8011821
117	0x3f2aca8e	0.66715324
118	0xbeeac3d3	-0.45852527
119	0x3f5d44d6	0.8643316
120	0xbf27eaf1	-0.6559287
121	0xbe89fe1b	-0.2695168
122	0xbe0ab663	-0.13546138
123	0x3f720ef8	0.9455409
124	0xbf040da0	-0.5158329
125	0xbec2b7a3	-0.3803073
126	0xbe9446fa	-0.289604
127	0x3c2234a5	0.009900247

g.6.weight f4 [1, 128]
0	0x3b4eca71	0.003155377
1	0xbf0e8278	-0.5566783
2	0x3974df5b	0.0002335286
3	0x3951d72a	0.00020011948
4	0x3e62a567	0.22133408
5	0xbedbacb4	-0.429052
6	0x3bb613d3	0.0055565624
7	0x3f08096d	0.5313938
8	0x3e01d4a1	0.12678768
9	0x3e0fd271	0.14045121
10	0x3df4b606	0.11948781
11	0xbe96c6f1	-0.29448655
12	0xbd57f570	-0.0527243
13	0x3bdc1cf4	0.0067173187
14	0xbec3c563	-0.38236532
15	0x3e8a7142	0.27039534
16	0xbe0ec373	-0.13941745
17	0x3de312c6	0.11087565
18	0xbd65df3a	-0.05612109
19	0xbbd060e5	-0.006359207
20	0xbef97041	-0.48718455
21	0xbb6321be	-0.0034657563
22	0xbef5cf26	-0.48009604
23	0xbd11fb61	-0.035640124
24	0xbf1ac79c	-0.6046083
25	0x3bcfefe9	0.006345738
26	0xbbd8f83a	-0.006621388
27	0xbc42c2a4	-0.011887226
28	0x3b2ef1bb	0.0026694376
29	0xbe18c8f6	-0.1492041
30	0xbee0fd23	-0.43943128
31	0xbc07be4d	-0.008285117
32	0xbe447895	-0.19186623
33	0x3edda5f9	0.4329069
34	0xbe3a249a	-0.18178025
35	0xbdac8c04	-0.08425143
36	0x3e1eb540	0.15498829
37	0x3cb68226	0.022278856
38	0xbcb7f0a1	-0.022453608
39	0xbd23c6bb	-0.039984446
40	0x3e3b59ee	0.18296024
41	0x3e9df7cd	0.3085312
42	0xbd8b4708	-0.068006575
43	0x3eac1bf4	0.33615077
44	0xba65c526	-0.0008765034
45	0xbde20b54	-0.11037317
46	0x3dfb9d01	0.122858055
47	0xbbc35eff	-0.005962252
48	0x3daef6f7	0.085431986
49	0xbc5ed652	-0.013600903
50	0x3e24cb7f	0.16093253
51	0xbe745698	-0.23861158
52	0xbe80a02a	-0.25122195
53	0xbd47d10f	-0.04878336
54	0x3da38fe9	0.07986433
55	0xbb9681b6	-0.0045930995
56	0xba0dbc8c	-0.0005406819
57	0xbf0fb73c	-0.5613897
58	0xbb161bcd	-0.0022904754
59	0xbed10213	-0.40821895
60	0x3d98078c	0.074233145
61	0x3f02da47	0.51114315
62	0x3e3f2793	0.1866744
63	0x3e790f95	0.2432235
64	0x3ba919a6	0.0051605282
65	0xbb3c3c72	-0.0028722552
66	0xbf324375	-0.6963418
67	0xba0bbe71	-0.0005330807
68	0x3f3c324b	0.7351424
69	0xbc4d48b7	-0.012529544
70	0xbe49fa67	-0.19724427
71	0xbbef6646	-0.007305893
72	0xbe16ef81	-0.14739801
73	0x3a102094	0.00054980186
74	0x3ba56b28	0.0050481744
75	0x3acfeba5	0.0015863074
76	0xbe39d8c8	-0.18149102
77	0x3b79994c	0.0038085757
78	0xbd564d5a	-0.052319862
79	0xbd2fe5ac	-0.04294364
80	0xbe4c9086	-0.19977006
81	0x3e57c40f	0.21070884
82	0x3decd5da	0.115642264
83	0x3c7ffe69	0.015624621
84	0x3ba9ef98	0.0051860325
85	0xbb022a0b	-0.0019861485
86	0x37fe3577	3.0304056e-05
87	0xbc6e6009	-0.014549264
88	0x3e6a7fbe	0.22900292
89	0x3a1c22f8	0.00059561385
90	0x3ccc787a	0.024959791
91	0xbea195ab	-0.315595
92	0xbbc46359	-0.0059932885
93	0xbe14720a	-0.14496627
94	0xbe0c397c	-0.13693804
95	0xbb9c5427	-0.004770774
96	0xbf21dbea	-0.6322619
97	0xbe6b9f6f	-0.23010038
98	0x3e8f8a57	0.28035232
99	0xbda66406	-0.08124547
100	0x3e20e5da	0.15712681
101	0x3e4bf733	0.19918518
102	0xbc487985	-0.012236004
103	0xbe3b09a6	-0.182654
104	0xbe92a617	-0.28642341
105	0x3de52521	0.111887224
106	0xbefdaca3	-0.49545774
107	0xbe4cc4f6	-0.1999701
108	0xbca637e9	-0.020290332
109	0x3dec0954	0.11525217
110	0xbe180099	-0.14843978
111	0x3ce75174	0.028237082
112	0x3bf354dc	0.0074258875
113	0x3edd2bc9	0.43197468
114	0xbb6dc72a	-0.003628204
115	0xbeadd79d	-0.33953562
116	0xbec43f18	-0.38329387
117	0xbe819b2c	-0.253137
118	0x3df3bf60	0.11901736
119	0xbeda29f2	-0.42610127
120	0x3e55a7cd	0.20864792
121	0x3e823e90	0.25438356
122	0x3ded07a9	0.11573727
123	0xbeeab528	-0.45841336
124	0xbe8cdc0a	-0.27511626
125	0xbd128430	-0.035770595
126	0x3de0dde6	0.10979824
127	0xbeac22c2	-0.33620268

f.0.weight f4 [128, 1]
0	0x3ebaab34	0.36458743
1	0x3c429e04	0.011878494
2	0x3d6ade64	0.057340994
3	0x3b89344c	0.0041871425
4	0x3cdaef48	0.026725426
5	0x3c14a4f0	0.009072527
6	0x3d7a83ba	0.06116078
7	0xbc476c2f	-0.012171789
8	0x3a66d800	0.000880599
9	0x3ea28d0a	0.3174823
10	0x3dbeb9e9	0.09312803
11	0x3d8d1b1c	0.06889936
12	0x3d679694	0.056540087
13	0xbb095412	-0.002095465
14	0x3d990069	0.07470781
15	0x3ea2b01e	0.31774992
16	0x3d501a24	0.05080618
17	0x3a431fc0	0.0007443391
18	0x3d07a14c	0.03311281
19	0x3c39cb76	0.011340013
20	0x3c8b5903	0.017010218
21	0x3d336caf	0.04380482
22	0xbdd0123b	-0.10159727
23	0xbdc8b673	-0.098004244
24	0x3d5d3604	0.05400659
25	0x3e8d16b4	0.27556384
26	0x3d795c03	0.060878765
27	0xbbdf79b6	-0.006819929
28	0xbd1b62c1	-0.037935976
29	0x3c2a631b	0.010399605
30	0x3bbaccb2	0.005700671
31	0x3efde7c8	0.49590898
32	0xbd25b115	-0.04045208
33	0x3e81050b	0.2519916
34	0x3deb131f	0.114782564
35	0x38ed83e2	0.00011325606
36	0x3c2a1fd2	0.010383563
37	0x3c4002cb	0.011719416
38	0xbb231a8e	-0.0024887654
39	0xbc94d12f	-0.018166153
40	0x3946e914	0.0001896958
41	0xbf05d4c1	-0.5227776
42	0x3deff0a5	0.11715821
43	0x3c48007d	0.012207148
44	0xbd5126e1	-0.05106247
45	0x3de11179	0.10989661
46	0xbc4be1c2	-0.012443962
47	0x3e1e5bc9	0.15464701
48	0x3e20a041	0.15686132
49	0xbf378c86	-0.71698797
50	0x3b86a9b7	0.004109587
51	0x3d0a0265	0.03369369
52	0x3a05d557	0.00051053375
53	0x3c3d1b5f	0.01154217
54	0x3eb052f2	0.34438282
55	0x3e8a1fb5	0.26977316
56	0x3daa7cfe	0.083246216
57	0x3d1adecd	0.037810136
58	0x3d5c928c	0.053850695
59	0xbb8418c8	-0.0040312745
60	0x3efa68d2	0.48908097
61	0xbd435b09	-0.04769424
62	0x3d0fcdde	0.03510844
63	0xbd5b5487	-0.05354741
64	0xbbc1220b	-0.005893951
65	0x3d181fb3	0.037139606
66	0xbbd9111a	-0.006624353
67	0x3f0602ae	0.5234784
68	0x3d3d8fb7	0.046279635
69	0x3c76130b	0.015019189
70	0xbd381a15	-0.04494675
71	0x3ccdd975	0.025128106
72	0x3d1b1629	0.03786293
73	0x3dc4569e	0.095868334
74	0xb7890903	-1.6335869e-05
75	0x398c25ea	0.0002673113
76	0x3acc1400	0.0015569925
77	0x3d218ea7	0.039442685
78	0x3ea0398f	0.31293914
79	0xbcefc72a	-0.029269774
80	0x3d8b7940	0.06810236
81	0x3a0645ff	0.00051221246
82	0x3dd0f290	0.10202515
83	0x3c186e51	0.009303645
84	0xbbaf3853	-0.0053472905
85	0xbaa3b8c1	-0.0012490974
86	0x3b6ae606	0.003584267
87	0x3c6a79e7	0.01431129
88	0x3eca1e24	0.3947612
89	0x3db265c1	0.08710814
90	0xbd0588a5	-0.032601018
91	0x3c298711	0.010347144
92	0xbc513e8d	-0.012771261
93	0x3c7f7c51	0.015593604
94	0x3ebb868e	0.36626095
95	0x3cbddb0c	0.023175739
96	0x3d340d23	0.04395784
97	0xbd2211bc	-0.039567694
98	0x3b03f600	0.002013564
99	0xbe0c8637	-0.13723074
100	0xbcae7970	-0.02129814
101	0xbd028eef	-0.031874593
102	0xbd82c6a1	-0.06385542
103	0xbc39e54f	-0.011346175
104	0x3de38b3f	0.111105435
105	0xbce7ce64	-0.028296657
106	0x3c391061	0.011295409
107	0x3c7311d0	0.01483579
108	0x3ca7d935	0.020489315
109	0x3e7826eb	0.24233596
110	0xb9afb630	-0.0003351434
111	0x3e225138	0.15851295
112	0xbc16b324	-0.009197984
113	0xbd2e58d9	-0.0425652
114	0x3d1bc071	0.038025323
115	0x398fa33e	0.0002739671
116	0xbbfe1a0e	-0.007754571
117	0x3a52d876	0.00080431195
118	0xbe3e926f	-0.18610547
119	0x3dd75877	0.1051492
120	0x3d7d6283	0.061861526
121	0x3ea64f63	0.32482442
122	0x3d109ec4	0.03530766
123	0x3d5b9256	0.053606354
124	0xbc81e8ef	-0.015858142
125	0x399eb90f	0.00030273988
126	0x3d572ce9	0.052533064
127	0x3e2b61a7	0.1673647

f.0.bias f4 [128]
0	0xbd15060f	-0.03638273
1	0xbf49300a	-0.78588927
2	0xbf73e795	-0.9527524
3	0xbe00794d	-0.12546273
4	0xbf08ee7a	-0.53488886
5	0xbe486e81	-0.19573404
6	0xbf9c4d10	-1.2211018
7	0xbe8cebc0	-0.27523613
8	0xbde70650	-0.11280501
9	0x3f1b6e14	0.6071484
10	0xbff04c71	-1.8773328
11	0xbf934fce	-1.150873
12	0xbf711ab0	-0.94181347
13	0xbebf1340	-0.37319374
14	0xbfa6483a	-1.2990792
15	0xc0079602	-2.1185308
16	0xbfb68158	-1.4258223
17	0xbd22102d	-0.039566208
18	0xbf106ae2	-0.5641309
19	0xbf165d2f	-0.58735937
20	0xbee9502a	-0.45568973
21	0xbf3b35b5	-0.73128825
22	0xc00ace29	-2.168833
23	0xc00e2a7c	-2.221343
24	0xbf667c29	-0.90033203
25	0x3f128fc5	0.57250625
26	0xbf803608	-1.0016489
27	0xbe9966b3	-0.29961166
28	0xc0109d97	-2.2596185
29	0xbfe52b39	-1.7903816
30	0xbeea5b6e	-0.4577288
31	0xbf0211b3	-0.50808257
32	0xbf59919e	-0.8498782
33	0xc040de5f	-3.0135725
34	0x3f5e5687	0.8685078
35	0xbef22816	-0.47296208
36	0xbe46e7e5	-0.19424398
37	0xbeb3accf	-0.3509278
38	0xbf3eb999	-0.7450195
39	0xbeec953c	-0.46207607
40	0xc0096bbb	-2.1472003
41	0xc001122d	-2.0167344
42	0x3f524a4d	0.82144624
43	0xbf802994	-1.0012689
44	0xbfce78f9	-1.6130668
45	0xbfe902bb	-1.8203958
46	0xbea7dd0a	-0.32785827
47	0x3f473b7f	0.7782516
48	0x3f4a15ce	0.7893952
49	0xbfae7759	-1.3630172
50	0xbf4a025a	-0.7890984
51	0xbfda9497	-1.7076596
52	0xbc7cdbbe	-0.01543325
53	0xbf30cd78	-0.6906352
54	0xbfcc1572	-1.5944045
55	0xc01b9c77	-2.4314249
56	0xbfba2f8c	-1.454576
57	0xc01fd63d	-2.497451
58	0xbf7d8b05	-0.9904025
59	0xbf227450	-0.6345873
60	0x3f5aaf98	0.85424185
61	0xbfba9f99	-1.4579955
62	0xbf898889	-1.0744792
63	0xbffaa2db	-1.958095
64	0xbea123a4	-0.31472504
65	0xbf5680d9	-0.83790356
66	0xbf21667e	-0.63047016
67	0x3f7fd6f4	0.9993737
68	0xbf4cda05	-0.8002017
69	0xbf30a593	-0.69002646
70	0xc0149558	-2.3216152
71	0xbf24d983	-0.64394397
72	0xc00eb94a	-2.2300591
73	0xc00ec258	-2.2306118
74	0xbb90e5a8	-0.0044219084
75	0xbe136701	-0.14394762
76	0xbef17a78	-0.4716375
77	0xbf3209bc	-0.69546103
78	0x3f1934f5	0.5984643
79	0xbf95b4e5	-1.169583
80	0x3ed78fe7	0.42101976
81	0xbc4be739	-0.0124452645
82	0xc016bfbc	-2.3554525
83	0xc0084e17	-2.1297662
84	0xbf91d0d0	-1.139185
85	0xbe996b92	-0.29964882
86	0xbeba5ca9	-0.3639882
87	0xbf54bfb2	-0.83105004
88	0xbf64681b	-0.8922135
89	0xbfd021ae	-1.6260278
90	0xbf7e93d4	-0.9944432
91	0xbf876b18	-1.0579557
92	0xbea0f96d	-0.31440297
93	0xbf2ef46e	-0.6834172
94	0x3e7c0f11	0.24615122
95	0xbee117aa	-0.43963367
96	0xbf449de5	-0.7680343
97	0xbf594bff	-0.84881586
98	0xbdea77d0	-0.11448634
99	0xc07dc4e2	-3.9651418
100	0xbf3413a8	-0.70342493
101	0xbf9b082c	-1.2111869
102	0xc04aa98f	-3.166599
103	0xbfa62f98	-1.2983274
104	0xbfe80f75	-1.8129717
105	0xbf166d7f	-0.5876083
106	0xbe41fa6b	-0.18943183
107	0xbecf3ae1	-0.4047461
108	0xbee87f1d	-0.4540948
109	0x3f6ff92c	0.9373958
110	0xbd159fbb	-0.036529284
111	0x3eccf190	0.40028048
112	0xbe5bccce	-0.21464846
113	0xbf969561	-1.1764337
114	0xbfdc0686	-1.7189491
115	0xbbcf0f24	-0.0063189436
116	0xbeabc82b	-0.33551154
117	0xbc578ff2	-0.013156878
118	0x3f1a7abc	0.6034353
119	0xbfe0ac66	-1.7552612
120	0xbfaf3a11	-1.3689595
121	0x3f1f0658	0.62119055
122	0xbfc025f1	-1.5011579
123	0x3e9980a6	0.29980963
124	0xbeec49c6	-0.46150035
125	0xbc1fc7a9	-0.009752193
126	0xbf9662d1	-1.1748906
127	0x3f577a18	0.84170675

f.2.weight f4 [128, 128]
0	0xbe92e156	-0.28687543
1	0xbd2ede5b	-0.042692523
2	0xbe6666a6	-0.22500095
3	0xbd956286	-0.072941825
4	0xbaa07c9f	-0.0012244171
5	0xbeaa2cdc	-0.3323735
6	0xbd2bfd90	-0.041989863
7	0xbd22a527	-0.039708283
8	0x3d6b2716	0.057410322
9	0xbec3e8c2	-0.38263518
10	0xbd44afb1	-0.048019115
11	0xbd8d9f5b	-0.0691516
12	0xbd9ebc8a	-0.07750805
13	0xbd7ebf7e	-0.06219434
14	0x3d5b22ee	0.05350011
15	0xbc857070	-0.016288966
16	0xbcbfad10	-0.023397952
17	0xbe3ae713	-0.1825221
18	0xbd9b2de8	-0.07577115
19	0x3d9ad4b9	0.07560105
20	0xbd27ab42	-0.04093481
21	0xbd895b72	-0.06706895
22	0xbc8bf2d4	-0.017083563
23	0x3ca4c980	0.020115614
24	0xbdc05665	-0.093914784
25	0xbe84f843	-0.2597066
26	0xbe8777ae	-0.26458496
27	0xbda25ea6	-0.07928209
28	0xbd70ad6e	-0.058759145
29	0x3d53347e	0.051563732
30	0xbd2179a0	-0.03942263
31	0xbeb20288	-0.34767556
32	0xbdaae1a0	-0.08343816
33	0x3da3e697	0.08002966
34	0xbe630c5c	-0.22172683
35	0x3d5af2e1	0.053454284
36	0xbd928175	-0.07153598
37	0xbd085eca	-0.033293523
38	0xbd0a05ec	-0.033697054
39	0x3d92ddcf	0.07171213
40	0x3da9eca5	0.082970895
41	0xbe617f56	-0.22021231
42	0xbeb0fe07	-0.34568807
43	0x3d8e4917	0.069475345
44	0xbd06c5fb	-0.032903653
45	0xbd9f0697	-0.07764929
46	0x3d88d367	0.06680947
47	0xbe5b92df	-0.21442746
48	0xbe88af39	-0.26696184
49	0xbf048a17	-0.5177321
50	0x3d1a766a	0.037710585
51	0xbdac4daf	-0.084132545
52	0xbe31d032	-0.17364576
53	0xbd242529	-0.0400745
54	0xbc8fdbdc	-0.017560892
55	0x3cd00f58	0.025397941
56	0x3d48457a	0.048894383
57	0xbd02410c	-0.031800315
58	0x3cfc4a2a	0.030797083
59	0xbd0cae7c	-0.03434609
60	0xbec60e29	-0.38682678
61	0xbda3ad86	-0.07992081
62	0xbc0a5ce0	-0.008444995
63	0xbf0fb1da	-0.56130755
64	0x3d059069	0.032608423
65	0x3c5845a8	0.013200201
66	0xbd7d21b9	-0.06179974
67	0xbeae3bf8	-0.34030128
68	0xbdcd6b52	-0.10030235
69	0x3d0777de	0.0330733
70	0x3d53f5ca	0.051748075
71	0xbb52cc63	-0.003216528
72	0xbd9c6a6a	-0.07637484
73	0x3d842463	0.06452253
74	0xbeb6d931	-0.3571258
75	0xbdc6f65d	-0.09714959
76	0xbb78f680	-0.0037988722
77	0x3d3b4cc2	0.0457275
78	0xbeb5c38d	-0.35500756
79	0x3c2886a8	0.010286011
80	0xbe4d6715	-0.20058854
81	0xbe7aef93	-0.24505453
82	0x3c7827b8	0.015146188
83	0x3c939768	0.018016532
84	0x3d0e7ef4	0.03478904
85	0x3c23e2b9	0.010002785
86	0x3ca19d61	0.019728364
87	0xbd038240	-0.032106638
88	0xbe9b55d1	-0.3033891
89	0x3d9ca7ab	0.076491676
90	0x3d88635d	0.06659577
91	0xbcaf127f	-0.021371124
92	0xbd899412	-0.06717695
93	0xbebd0279	-0.3691595
94	0xbea16c86	-0.3152811
95	0xbd342807	-0.043983486
96	0x3d6772eb	0.05650608
97	0x3c912068	0.017715648
98	0xbdb09e89	-0.08623988
99	0x3ca87804	0.02056504
100	0xbc2cc29e	-0.010544447
101	0xbd99b74a	-0.07505663
102	0xbb807aa0	-0.003920868
103	0xbde5e7a9	-0.11225826
104	0x3d84cc1f	0.064842455
105	0xbdb091ae	-0.08621536
106	0x3c9bd490	0.019022256
107	0xbd5e1977	-0.054223504
108	0xbd340789	-0.0439525
109	0xbe8922f4	-0.2678448
110	0xbe025427	-0.12727414
111	0xbe6b21bb	-0.22962086
112	0x3d21ae51	0.03947288
113	0x3d96cb97	0.073630504
114	0x3d191a26	0.037378453
115	0xbeb0c2df	-0.34523675
116	0x3d7555f2	0.059896417
117	0xbe787987	-0.24265109
118	0xbe37aa72	-0.17936113
119	0xbd2ead4a	-0.04264573
120	0x3d936089	0.07196147
121	0xbe973c86	-0.29538363
122	0x3d90bfef	0.070678584
123	0xbe931083	-0.28723535
124	0xbd44a647	-0.048010137
125	0xbe741789	-0.23837103
126	0xbd0a2625	-0.033727784
127	0xbe7f7e5c	-0.24950546
128	0xbc759df7	-0.014991275
129	0xbd1771b9	-0.03697369
130	0x3cd9e733	0.026599502
131	0xbd9145af	-0.07093369
132	0x3c618a82	0.013765933
133	0xbded74a4	-0.11594513
134	0x3d59427a	0.053041913
135	0xbda5bddd	-0.08092854
136	0x3d8a179d	0.06742785
137	0xbd1808ba	-0.037117697
138	0x3e7f88fe	0.24954602
139	0xbd372cb9	-0.044720385
140	0xbd85ef13	-0.065397404
141	0xbd279b55	-0.04091962
142	0xbd8499cd	-0.06474648
143	0xbd84b412	-0.06479658
144	0x3ea57360	0.32314587
145	0xbd0f10ee	-0.034928255
146	0xbd7d30c4	-0.061814085
147	0xbabbc69e	-0.001432616
148	0xbdad77bf	-0.084701054
149	0x3d1cbe58	0.038267463
150	0x3e592d45	0.21208675
151	0x3ecbc172	0.39796025
152	0x3c3eca47	0.011644906
153	0xbda4235d	-0.080145575
154	0x3d345454	0.044025734
155	0xbd099fad	-0.033599544
156	0xbd8122ca	-0.063054636
157	0x3dc786ea	0.0974253
158	0x3d671992	0.05642087
159	0xbced86be	-0.028994914
160	0xbe77047f	-0.24122809
161	0xbcbfb887	-0.02340342
162	0xbd15143a	-0.036396243
163	0xbc411948	-0.011785813
164	0x3d285b37	0.041102614
165	0xbe0ea906	-0.13931665
166	0xbe13b3d7	-0.14424072
167	0xbdb423b2	-0.08795871
168	0x3e9a2b85	0.30111328
169	0xbd8c6860	-0.068558455
170	0xbc3d2375	-0.011544098
171	0x3e88e290	0.26735353
172	0x3c7ac755	0.0153063135
173	0x3eb38abf	0.35066792
174	0x3ca9e8f0	0.020740956
175	0xbe144045	-0.14477642
176	0xbe00d6ee	-0.12581989
177	0xbdf654ac	-0.12027869
178	0xbd8766f6	-0.06611435
179	0x3e457bbf	0.19285487
180	0x3cc0f15f	0.023552595
181	0xbe1c2fe8	-0.1525265
182	0xbe0362ac	-0.12830609
183	0xbd0a8411	-0.033817355
184	0x3eb7c875	0.35895124
185	0xbcdbdf04	-0.02683974
186	0xbdde4f6d	-0.10854993
187	0x3d245c31	0.040126983
188	0xbd5a82ab	-0.05334727
189	0x3ec0b595	0.37638536
190	0xbe0c97c6	-0.13729772
191	0xbe4d782e	-0.20065376
192	0xbd858584	-0.06519607
193	0xbbe11550	-0.0068689957
194	0xbb509768	-0.0031828526
195	0xbd331a06	-0.04372599
196	0xbc66c73b	-0.014085586
197	0x3c41afa9	0.011821666
198	0x3e99de88	0.3005259
199	0xbb0b20db	-0.00212293
200	0x3b950ecd	0.0045488835
201	0x3b7a024a	0.0038148337
202	0x3d7a9d97	0.061185446
203	0xbddff305	-0.10935024
204	0x3c9d8620	0.019228995
205	0xbcb9da8e	-0.022687223
206	0xbd19e74c	-0.037574098
207	0xbcc700d3	-0.024292385
208	0xbe013ed8	-0.12621629
209	0xbc060eee	-0.00818227
210	0xbdbc67cb	-0.091994844
211	0x3e2d3b09	0.16917051
212	0xbd6dda9d	-0.058069814
213	0xbd635288	-0.05549863
214	0xbe4340cf	-0.19067691
215	0x3d8662da	0.06561823
216	0xbe1282e3	-0.14307742
217	0x3c9c74cc	0.019098662
218	0x3ea1695f	0.31525704
219	0xbe555958	-0.20834863
220	0xbd4f8c74	-0.050671056
221	0xbd763dca	-0.06011752
222	0xbe199f58	-0.15002191
223	0xbdf1c759	-0.11805601
224	0x3cf8a0f9	0.030350195
225	0xbde6c98a	-0.11268909
226	0x3d6d9b82	0.058009632
227	0x3ebdd185	0.37073913
228	0xbde23a64	-0.110462934
229	0x3e935ff6	0.2878415
230	0x3ebccb5a	0.36873895
231	0xbe6ab36b	-0.22920005
232	0x3cea09f5	0.028569201
233	0x3c96c1b0	0.018402904
234	0x3aa759dc	0.0012767869
235	0xbe28c497	-0.16481243
236	0xbd0da97f	-0.034585472
237	0xbc514f95	-0.0127753215
238	0xbdef7c50	-0.116936326
239	0xbb7c160c	-0.003846529
240	0xbc102021	-0.008796723
241	0x3d0d143d	0.03444313
242	0x3edde4bc	0.43338573
243	0xbda15505	-0.07877544
244	0x3c2b7539	0.01046496
245	0xbd394d6f	-0.045239862
246	0xbde54808	-0.111953795
247	0x3ed04712	0.40679222
248	0x3f1216bd	0.57065946
249	0x3bf8e675	0.007595832
250	0x3d97e5e1	0.07416893
251	0xbdb05e16	-0.086116955
252	0xbd98092c	-0.074236244
253	0xbddcefa8	-0.10787898
254	0x3e351998	0.17685544
255	0xbd26f11a	-0.040757276
