codes/lightning_logs/version_1/checkpoints/epoch=1190-step=50000.ckpt (torch, 417779 bytes, 21 tensors)

g.0.weight f4 [128, 4]
000000 11 c9 a8 bd c9 2b 2e 3f 11 a8 0a c0 00 b4 59 be
       -0.082414754 0.6803556 -2.166508 -0.21260071
000010 a2 d7 89 bc 3f 61 15 3e b3 95 ae 3e 7e d6 34 3f
       -0.016826455 0.14587878 0.34098586 0.7063979
000020 de 12 a9 bd a1 a1 4e 3d ff 8b a1 bd b7 be 10 3d
       -0.08255552 0.05044711 -0.0788803 0.03533813
000030 86 b9 ad be d7 47 cf be 21 4b 29 3e df 49 12 3f
       -0.33930606 -0.40484497 0.16532566 0.5714397
000040 10 e8 5b ba 70 3e 61 3e 6e 13 89 be 0e 31 05 be
       -0.0008388767 0.21996474 -0.26772636 -0.13006994
000050 21 80 b7 3d c8 91 92 3e ed 67 8e 3e a9 ae 17 3f
       0.089599855 0.28626847 0.27813664 0.59250885
000060 c9 bb e2 bd 22 d5 6a bc 51 9e 00 3f 96 dc f2 be
       -0.110709734 -0.014333041 0.5024157 -0.4743392
000070 14 5e 22 bd f4 ca f5 bd cb 40 63 3e 90 6c 54 3f
       -0.0396405 -0.12001601 0.22192685 0.82978153
000080 11 a9 e4 bf 3d b8 30 3e 49 b4 93 3e 6a 30 b2 bf
       -1.7864095 0.17257781 0.28848484 -1.3921025
000090 20 fa c5 bd 9f 9c e7 3e 0e 0f 0f 3f 4b a1 14 3f
       -0.09666848 0.4523668 0.55882347 0.58058614
0000a0 bb b1 6b 3d 32 4e af bc 53 81 95 3e 29 be 33 be
       0.057542544 -0.021399591 0.2920023 -0.17553009
0000b0 47 66 42 bd b1 0a 87 be 8d 45 06 3f cd 70 05 3f
       -0.04746082 -0.26375344 0.52449876 0.52125245
0000c0 ef 3c 34 bc 98 cc b4 3d 4b c9 3d 3f 27 ba 68 3f
       -0.011000856 0.08828086 0.74135274 0.90909046
0000d0 33 7d 91 3d f6 65 c0 bd 8c b8 b8 3e ee ad 3e be
       0.07103958 -0.093944475 0.36078298 -0.18621036
0000e0 bc 81 d9 3c 06 01 ee bd f7 82 ad be 9e b3 8c 3e
       0.02655112 -0.11621289 -0.3388898 0.27480787
0000f0 16 3f de bd 1f 61 92 bc 30 82 4d be 7c 0b 74 3e
       -0.108518764 -0.017868577 -0.20069194 0.23832506
000100 3a 81 fb 3c 9f 49 20 be 17 a3 56 bd 9e f3 c6 3d
       0.030701268 -0.15653084 -0.05240163 0.09714435
000110 52 b4 e0 3a 3a a4 b5 3e af 9a c5 be 7d 23 0c be
       0.0017143583 0.35476857 -0.38594577 -0.13685413
000120 da 46 a2 3d 8d aa d1 3e 0f e6 51 3f 37 94 4c 3f
       0.0792367 0.40950432 0.81991667 0.7991366
000130 64 33 7f 3d 40 d9 d3 bd e0 f8 d6 3c f4 ee 83 be
       0.06230487 -0.103441715 0.02624172 -0.25768244
000140 a8 12 ee bf ff 15 47 3d c4 a7 dc 3f 1c 00 e1 be
       -1.8599443 0.04860496 1.7238698 -0.43945396
000150 19 1b 5a 3d e4 8e 39 3c 27 53 8a be 58 32 fc bd
       0.0532485 0.011325572 -0.27016565 -0.1231429
000160 9f f3 4e 3e 7b 63 a9 be 39 d9 cb 3e bf b3 17 3f
       0.20210122 -0.3308371 0.39814165 0.59258646
000170 6d 26 38 3d fb 24 ad 3e 44 8a 09 bf 0b 14 a1 3b
       0.04495852 0.33817276 -0.537266 0.0049157194
000180 2e 72 d3 3c 42 e8 00 3e ea 79 9a be 07 aa 15 be
       0.025811281 0.125886 -0.30171138 -0.14615642
000190 2d bf 01 3e 83 59 22 3e 31 de 61 be fb 65 ca bd
       0.12670584 0.15854459 -0.22057416 -0.098827325
0001a0 bc f4 e3 bf 46 a6 85 3d 9a 20 dc bd 94 31 8d bf
       -1.7809062 0.06525855 -0.10748406 -1.1030755
0001b0 cb f7 b0 bd fa 33 84 bd 11 aa a5 3d 43 f8 0c 3f
       -0.08641013 -0.06455226 0.08089078 0.5506632
0001c0 b4 48 61 be cc 32 5d 3e 3e 9b a7 3e b7 c0 9d be
       -0.2200039 0.21601409 0.32735628 -0.30811092
0001d0 a1 89 c2 bd 7e af 58 bd 96 f9 dd 3e a6 1a e0 3e
       -0.09498907 -0.052901737 0.4335448 0.4377033
0001e0 09 80 e4 3a 7d 9a 88 bd df a5 84 be f2 38 6b 3e
       0.0017433177 -0.06670091 -0.259078 0.22970942
0001f0 8f ab 10 c0 ff b5 86 bf f8 7f 59 3f 8a 73 af be
       -2.260471 -1.0524291 0.8496089 -0.34267837
000200 a5 17 fb 3c 57 a8 fd be 7f 1b e3 3e 8d 7e 2f 3f
       0.030650923 -0.49542496 0.44356915 0.68552476
000210 be da 25 be 0a 92 8d bc ba ab 4c 3f 78 67 b2 3e
       -0.16196725 -0.01728155 0.79949534 0.34844565
000220 68 97 b0 3d c9 03 4a 3d d2 e4 91 3e ce aa 38 3f
       0.086226285 0.049320016 0.2849489 0.7213563
000230 be 03 49 3e 3f 7e 5b 3e c1 5a 49 3f 90 cc 64 3e
       0.19630334 0.21434878 0.78654104 0.2234366
000240 dc 39 2f be 98 e2 6e be 20 43 f2 3e 03 f1 29 3e
       -0.17111915 -0.23328626 0.47316837 0.16595845
000250 ef 80 e5 be 02 ef da be 2d 4f da bf 08 91 78 bf
       -0.4482493 -0.42760473 -1.7055413 -0.970963
000260 70 b4 cf bd 56 64 8c 3e 74 67 8a 3e 02 e5 f6 be
       -0.101418376 0.274203 0.27032053 -0.48221594
000270 b7 ba 2e 3e 6c cf 0e be ca ed 6e 3c be 02 31 3d
       0.17063414 -0.13946313 0.0145830605 0.043215506
000280 25 cb fc be 10 b7 26 3e c9 32 0b 3d 12 83 4a bf
       -0.49373737 0.1628077 0.03398398 -0.7910625
000290 28 3c a0 bd 80 e1 d3 3b b8 96 68 be b8 de 40 3e
       -0.07823974 0.0064660907 -0.22713745 0.1883496
0002a0 5d 5d 1f be 6a b1 20 bd ca 1a 4f 3f 99 15 03 3e
       -0.15562959 -0.039231695 0.8090025 0.12801208
0002b0 59 60 ae 3c 74 89 19 bd 81 67 c9 be 92 b1 c5 3e
       0.021286177 -0.0374846 -0.3933678 0.38612038
0002c0 99 db 86 bd d5 e9 cf be 1d fc 39 3f 6c 4d b5 bd
       -0.06584854 -0.40608087 0.7265032 -0.08852658
0002d0 12 19 d6 3d 0d 23 fe bd 1e bf 39 3f fc 71 d8 3e
       0.104540005 -0.12409029 0.72557247 0.42274463
0002e0 99 1e e6 bb 87 e9 fd 3c 55 f7 52 bd b1 ee 1f 3c
       -0.0070226905 0.030995144 -0.051505405 0.009761498
0002f0 66 0a 0e be 9a c9 c1 3e 33 91 52 3f 1f 8b 32 3f
       -0.13871154 0.37849122 0.82252806 0.6974353
000300 e8 3e e0 bf 89 2f a7 3c 06 4b 41 bf b1 34 6b bf
       -1.7519197 0.020408409 -0.755051 -0.91877276
000310 30 2c 95 be 34 f9 2e 3e c4 8d 98 be 00 ba 32 bc
       -0.29135275 0.17087251 -0.2979566 -0.010908604
000320 35 71 07 bf b7 78 52 3f 80 c6 f2 bf 8d 0f 46 be
       -0.52907115 0.82215446 -1.8966827 -0.1934187
000330 86 de 90 be ce 36 92 3e f3 6c 2a 3e a3 06 47 3f
       -0.28294772 0.28557438 0.16643123 0.777445
000340 38 49 d6 bc 48 1d c6 bd 32 91 b4 3d 74 95 f1 3c
       -0.02615796 -0.09673554 0.08816756 0.02949021
000350 af 5f 34 bd 5a 9c 32 be 4e 11 aa 3e ea 03 bb 3e
       -0.044036563 -0.17442456 0.33216327 0.36526424
000360 8f 02 80 3d 2b dd 5a be ff d3 fb 3e 8a c7 82 be
       0.06250488 -0.21373431 0.49185178 -0.2554286
000370 70 ac ab bc 67 0c 9d 3e 6d 8b 85 3e 3e 7d 55 3e
       -0.020956248 0.30673525 0.26082936 0.20848557
000380 36 ac bc be 97 83 bc 3d 72 ed 7d be 39 6f 40 3e
       -0.36850137 0.09204786 -0.2479761 0.18792428
000390 27 a6 7c bd a4 6c 87 bd cb a0 e2 3e cc 52 53 3f
       -0.061681893 -0.066125184 0.442633 0.82548213
0003a0 48 44 0e be e2 b4 54 3e 9c 0c 09 3f 20 bc 16 be
       -0.13893235 0.20772126 0.53534865 -0.14720201
0003b0 e5 47 eb 3b 99 66 17 bf 15 4a 04 be 44 8a 7e bd
       0.0071802014 -0.59140927 -0.12918885 -0.06214358
0003c0 20 46 b8 bd 08 6e 86 3d 6f 31 ae bd 0b 61 f5 3d
       -0.0899775 0.065639555 -0.085055225 0.119814
0003d0 6e 31 d7 3d 3a e6 b1 be 0f c3 ce 3e 34 9f 94 be
       0.10507475 -0.3474596 0.40383193 -0.29027712
0003e0 1d 8b b9 bd bd fb c2 3c 4b fe d1 bf ed 3d 6c be
       -0.09059737 0.023801679 -1.6405729 -0.23070498
0003f0 5f a0 af 3c a5 dc 95 bd a5 cd 41 be 84 32 25 3e
       0.021438776 -0.07317475 -0.18926103 0.16132551

g.0.bias f4 [128]
000000 bd 80 5d bf c5 e1 5c 3b 6a d5 86 bd 79 95 46 3f
       -0.86524564 0.0033703905 -0.06583674 0.7757183
000010 2e b3 9a be ef a6 ac 3d 8e 33 92 3e 40 41 29 3f
       -0.30214828 0.084302776 0.28554958 0.6611519
000020 88 87 34 bf bd f6 72 3d ec 80 93 be 3f ef 32 be
       -0.70519304 0.05931734 -0.28809297 -0.17474078
000030 91 8d db bc c5 1f c6 be 73 86 39 be 27 c6 58 be
       -0.026800903 -0.38696113 -0.18117695 -0.21169339
000040 c3 fa 3c be 82 da d9 be 26 8e 46 3f c2 8a be be
       -0.18455033 -0.4254952 0.7756065 -0.3721524
000050 4a 44 0a bf b2 ab f4 be 72 79 b3 be 8c 7a ad be
       -0.5401045 -0.47787243 -0.35053593 -0.33882558
000060 62 35 85 be 33 cb 02 bf 54 12 d3 be 06 6f 0c 3f
       -0.2601729 -0.5109131 -0.4122492 0.5485691
000070 68 dc 9c be 82 c4 26 3f a8 ab 71 be b7 9c 91 bf
       -0.30636907 0.651436 -0.23600638 -1.137595
000080 cf 4b 54 3f aa 9f 76 3f a9 a9 ff be d7 e1 03 bc
       0.82928175 0.9633738 -0.49934128 -0.00804945
000090 cd 68 44 3e 34 4a 6f 3c 26 e2 f2 be 19 57 38 bf
       0.19180603 0.014605094 -0.47438163 -0.720079
0000a0 65 c0 a4 3f f8 f7 a1 be b8 36 06 3f e7 c4 42 be
       1.2871214 -0.31634498 0.52427244 -0.19020425
0000b0 9c f4 ca 3e 04 d5 99 3d be 0a 94 bc d7 29 43 3e
       0.39639747 0.07511333 -0.018071529 0.1905893
0000c0 20 d5 27 bf d8 21 97 be a1 ba 60 bf dd 1a 44 3f
       -0.6555958 -0.29518008 -0.87784773 0.7660349
0000d0 e4 8c af be b0 07 4e 3f e9 83 41 3e b2 49 b4 be
       -0.3428718 0.8048048 0.18897976 -0.35212475
0000e0 2d 41 20 3f a8 bf 4f 3f 81 1a 34 3f bf a7 e7 3d
       0.6259945 0.8115182 0.7035294 0.11311292
0000f0 35 bd 0f be 3a ba ef be 9d 28 1a bf d5 cb db bd
       -0.1403702 -0.46821767 -0.6021822 -0.10732237
000100 dc 73 30 bf 27 d1 f2 be 6d 2d e3 3e 07 dc 29 bd
       -0.6892679 -0.47425196 0.44370595 -0.0414696
000110 02 c6 d9 be 95 7e 13 bf 10 35 e8 be be 00 18 be
       -0.4253388 -0.57615024 -0.45352983 -0.14844033
000120 86 34 83 bf 37 1a 23 be 21 6c 90 be 63 7c 3f 3f
       -1.0250404 -0.15927969 -0.28207496 0.74799174
000130 f0 64 56 3f bd e0 ea bd 56 c6 81 bd 73 31 27 bf
       0.8374777 -0.11468647 -0.06336658 -0.6530983
000140 d8 53 e7 be 4c 48 0c 3f 57 f8 24 bf 53 aa 4b be
       -0.45181155 0.54797816 -0.64441437 -0.19889192
000150 94 86 97 be d9 68 82 3f 98 80 7a 3f 5b f4 72 3f
       -0.29594862 1.0188247 0.9785247 0.94904107
000160 9f ee c5 be 88 30 41 be 01 84 20 3f 0b 7e 18 3f
       -0.38658616 -0.1886617 0.6270142 0.59567326
000170 f7 32 a1 3e c7 cd 6d bf 44 1d 38 3e 3a 12 bb be
       0.31484196 -0.92892116 0.17979914 -0.36537343
000180 8a 55 38 be ee c4 a8 bd b8 11 17 3f 75 3f 09 bf
       -0.1800138 -0.08240686 0.5901141 -0.5361245
000190 48 0c 5b 3f 0a 6e fe bd 75 b5 66 be bc 4a 22 be
       0.85565615 -0.12423332 -0.22530158 -0.15848821
0001a0 7e 38 5c 3f e5 08 02 3f 02 2c 0c be 81 28 61 3e
       0.860237 0.5079482 -0.13688663 0.21988107
0001b0 d8 14 c7 be 54 23 da be 97 36 3e 3f 38 c6 f9 be
       -0.3888309 -0.42605078 0.7430205 -0.4878404
0001c0 53 f4 6c ba cc bd de be 3e fd 88 bd 75 0f 5c be
       -0.00090390927 -0.4350418 -0.06688927 -0.21490271
0001d0 d9 78 89 be 02 6a 44 3f 7c 0b 7d be 28 fb 1b 3f
       -0.26850012 0.76724255 -0.24711412 0.6093011
0001e0 a0 0d 48 3f bb cf 8b 3d 12 de 4f 3e 87 b9 a2 be
       0.7814579 0.06826731 0.20299557 -0.3178217
0001f0 a1 9d aa bd 71 05 eb be 0a f7 45 bf 20 3c 40 3f
       -0.083308466 -0.4590259 -0.77330077 0.75091743

g.2.weight f4 [128, 128]
000000 06 33 1d bf aa e0 84 3e 47 18 b8 3c ab 21 61 3e
       -0.6140598 0.25952655 0.022472514 0.219855
000010 2c 75 22 bd ce cf 91 3e c8 e1 9b bd 96 56 cb 3e
       -0.039662525 0.28478855 -0.07611424 0.39714497
000020 ff 56 85 bf a8 ee 8e 3e 76 0b 37 3c 25 70 ca 3d
       -1.0417174 0.27916455 0.011172166 0.09884671
000030 d2 33 eb 3e e6 0f 8f bd 50 3b 82 bd 49 3c 32 bd
       0.45937973 -0.06985454 -0.06358969 -0.043514524
000040 f7 75 46 3c b7 c2 95 3d a0 2e b4 3e 0c 7f d7 3b
       0.012113086 0.073125295 0.35191822 0.0065764245
000050 3d 31 07 c0 b9 7d c0 3d 88 9f 56 3e 98 97 98 bd
       -2.1123803 0.0939898 0.20959294 -0.07450789
000060 9e c7 f6 3c 53 7b dc 3d 2e b5 0f bf cf 3b 6a 3e
       0.030124482 0.1076571 -0.56135833 0.22874378
000070 98 5f 39 bd 6b 5b a9 3e c4 b7 d0 bd e6 ad 8c bf
       -0.04525718 0.3307756 -0.101913005 -1.099057
000080 e6 88 bf 3e 68 10 d4 3e a6 fd 8d 3e 86 7e 9f 3e
       0.37409133 0.41418767 0.2773258 0.31151217
000090 1d d1 02 3d be eb 5c 3f 9a ed 77 3d f7 5e c6 3c
       0.031937707 0.86297214 0.06052933 0.024215205
0000a0 45 6d 36 bf bc 0c 71 bd bd 00 79 3e 06 79 47 3c
       -0.7126048 -0.058850035 0.24316688 0.01217485
0000b0 a8 a1 fc 3d 42 1d a5 3e 45 89 4f bc 67 59 98 3e
       0.12335521 0.32248884 -0.012667005 0.2975571
0000c0 f4 7f 35 bf 34 98 d8 3c f5 01 8f bf 38 2e 82 3e
       -0.70898366 0.026439764 -1.1172472 0.25425887
0000d0 37 61 0b 3d bd ac 9b 3e b1 20 cb bc c1 32 0a 3d
       0.03402826 0.30405226 -0.024795862 0.03373981
0000e0 2f 05 de bc 22 0a a3 3e a5 81 3a 3e 4f 5f 1a 3e
       -0.027102081 0.31843668 0.18213518 0.1507542
0000f0 c6 c8 69 bd 04 03 55 3d 2d c8 ca 3e e5 d4 5f 3c
       -0.057076238 0.05200483 0.39605847 0.013661598
000100 6e ff 90 bf 0f ed a7 3e 2a e5 7c 3d 03 37 73 3d
       -1.1327951 0.3279805 0.061741985 0.059378635
000110 7a 1b 8a bf 52 da 54 3c f0 f6 37 bc ee 82 e0 bd
       -1.0789635 0.012991505 -0.011228308 -0.10962473
000120 1c c4 2b c0 37 eb 58 bd e6 6b cf 3d a0 77 42 3e
       -2.6838446 -0.052958693 0.10128002 0.18990946
000130 0b 6a ae 3e da fe 2a bd 3f a9 9a 3e 7e 47 5b 3d
       0.3406528 -0.04174695 0.3020725 0.053534977
000140 4f cf 92 3d 3f 12 41 3e bf a7 17 bf 45 37 20 3e
       0.07168447 0.18854617 -0.59240335 0.15646084
000150 25 9f aa 3e 8e 06 fa 3e 5a b2 f5 3e e3 24 90 3e
       0.33324543 0.48833126 0.47987634 0.28153142
000160 e4 40 99 3e 7b b4 3b bd 59 11 71 3f 21 4f 16 3e
       0.2993232 -0.045826416 0.94167095 0.14678623
000170 62 45 0b 3e 51 24 de be a4 50 94 3e 56 7e a4 3e
       0.13600686 -0.43387082 0.28967774 0.32127637
000180 80 1b a8 3e 97 8c 92 bd 79 17 8b 3e be df a4 bd
       0.3283348 -0.07155722 0.27166346 -0.08050488
000190 f5 8b 64 3e 9e 64 c2 3e d5 8a a3 3d 1d 73 27 be
       0.22319014 0.3796739 0.079854645 -0.16352506
0001a0 ff 06 e8 3e 83 c5 99 3e 99 3b 8d 3d fc 21 92 ba
       0.45317838 0.30033502 0.06896133 -0.0011149044
0001b0 1a b0 c3 3c 35 b7 5e bc a7 34 7d 3e 00 30 19 38
       0.023887683 -0.013593485 0.24727117 3.6522746e-05
0001c0 41 1b c5 3e 10 79 98 3d 0f 95 87 bd db 9b 9d bc
       0.38497356 0.07444966 -0.066202275 -0.019239357
0001d0 ad cd b2 bc ac 43 e3 3e ce e7 96 bd f5 55 ca 3d
       -0.02182659 0.44387567 -0.07368432 0.09879676
0001e0 dd 23 8f 3e 85 84 b5 3e 92 4a 0d be 36 89 51 3d
       0.2795705 0.35452667 -0.13797978 0.051156245
0001f0 80 3b 89 3e f1 ac 17 3e e3 e6 34 bd 48 8e bc 3e
       0.26803207 0.14812066 -0.044165503 0.36827302
000200 80 6c 8e bf f5 3f 6f 3e 0d 60 1e 3d 50 b4 6e 3e
       -1.1126862 0.23364241 0.03866582 0.23310971
000210 e1 5c a1 3d 21 06 84 3e b2 ba 97 3d 34 72 87 3e
       0.07879043 0.25785926 0.07408656 0.26454318
000220 e8 69 6c bf 34 68 85 3e 7b 4e fe 3d 53 24 71 3d
       -0.923491 0.26056063 0.12417313 0.058872532
000230 46 51 a3 3e 66 88 66 3d 5d 8f b0 3d 32 83 a3 3c
       0.31897944 0.056282423 0.086210944 0.01996002
000240 68 57 36 bd 22 96 17 bd 96 18 bd 3e d2 1a 04 3d
       -0.04451695 -0.037008412 0.3693282 0.03225214
000250 d1 10 e3 bf 5f 94 d8 bd 13 2e 1e 3e e0 ee 3c 3d
       -1.7739507 -0.105751745 0.15447263 0.046126246
000260 27 48 8c 3d bd 48 4f 3d 3f b0 31 bf 25 a7 05 3e
       0.068496995 0.050606478 -0.69409555 0.13052042
000270 e6 ee 80 bd 00 3e 54 3e 1b 69 93 bc d1 7e 6e bf
       -0.06295566 0.20726776 -0.017994454 -0.93162256
000280 3a 26 f3 3e 54 b9 be 3e c3 b3 a6 3e a6 e0 3f 3e
       0.47490102 0.3725077 0.32559022 0.1873804
000290 f5 20 51 3d 80 53 b4 3f c1 00 b4 3d ad 42 2b bd
       0.05105682 1.4087982 0.08789206 -0.041811634
0002a0 4e 14 65 bf 58 0f 2b 3c 6b 9d 64 3e 88 6b 51 bb
       -0.8948411 0.01044067 0.22325675 -0.0031954963
0002b0 b6 80 1e 3e c1 33 52 3e 05 ea ab 3c 9e 6d d7 3e
       0.15478787 0.20527555 0.020985613 0.4207582
0002c0 e6 54 7e bf b3 5c 96 3d f5 b5 5f c0 be 28 b6 3e
       -0.99348295 0.073419 -3.4954808 0.3557796
0002d0 e1 bc ab 3d 28 fd 61 3e 62 b9 94 3d a7 bc de 3d
       0.08385635 0.22069228 0.072619215 0.10875826
0002e0 f9 bb a8 3d bd d8 bf 3e ed f7 39 3e ad 1a 62 3d
       0.08238978 0.37470046 0.18160982 0.05520122
0002f0 05 ba a7 3c 02 68 b8 3c dd 25 d9 bf 29 8d 0b 3c
       0.020474443 0.022510532 -1.696468 0.008517542
000300 5e db 8f bf 22 df a3 3e dc c6 8a bc ae 83 ca 3d
       -1.123882 0.32006174 -0.016940527 0.09888397
000310 0c 23 83 bf a6 12 95 bd 6c d0 f4 bc 99 30 b8 bc
       -1.024507 -0.072789475 -0.02988454 -0.02248411
000320 ca 7c a4 c0 dd 9f b5 3d 00 fc f2 b9 fc ce 91 3e
       -5.140233 0.08868382 -0.00046345592 0.2847823
000330 9a e7 c7 3e 5b 19 00 3e c7 14 95 3e 02 9d 3a 3d
       0.39043885 0.12509672 0.29117414 0.04555989
000340 90 48 85 3b 44 13 8a 3e 06 f9 fa be cb 65 01 3e
       0.004067488 0.26967824 -0.49018115 0.12636487
000350 9e cd b6 3e 34 80 db 3e ed e3 e3 3e 83 91 97 3e
       0.35703748 0.4287125 0.4450983 0.29603204
000360 09 31 85 3e 94 7f 26 bd da ac 92 3f 5c 2b 90 3c
       0.26013973 -0.04064901 1.1459 0.0175988
000370 96 4d 5d 3e 30 ba 1a be 33 7f c1 3e 47 99 7f 3e
       0.21611628 -0.15110087 0.37792358 0.24960814
000380 2a 9d e0 3e 63 51 65 bc 3b 51 8d 3e cd 9e 24 bd
       0.43869907 -0.013996455 0.27601036 -0.040190507
000390 c7 bd 90 3e 43 cd ce 3e a5 69 21 3d 0e e1 03 3e
       0.2826979 0.40390977 0.03940739 0.1287882
0003a0 cd cc a7 3e 12 df 6b 3e 0f 51 dd 3c fb c0 66 3d
       0.32773438 0.23034313 0.02701619 0.056336384
0003b0 01 5f a1 3d 3d c8 f7 3d 06 ee 9b 3e 00 99 b4 bb
       0.07879449 0.12098739 0.30455035 -0.005511403
0003c0 28 d4 92 3e a5 7d 8f bd a2 f6 0f 3d fa 8c 05 3e
       0.28677487 -0.07006387 0.035147317 0.1304206
0003d0 a0 05 b4 3d 17 22 dd 3e b0 43 02 3d 5f 4e d6 3d
       0.087901354 0.4319007 0.031802833 0.10464167
0003e0 8f 7d b8 3e f1 87 cc 3e 49 dd b7 bd ba bc 29 3d
       0.36033294 0.39947465 -0.08977754 0.04143975
0003f0 21 2e 89 3e 1a 89 93 3e a4 ea 66 bd 71 4b ae 3e
       0.26793006 0.28815538 -0.056376114 0.34041932

g.2.bias f4 [128]
000000 e8 ca 3b 3f 1f 4c 7c 3f 2e 69 31 3f b1 7d 0b 3c
       0.73356485 0.9855365 0.69301116 0.008513854
000010 57 f3 29 3f aa 51 3d 3f d3 6f 6d 3f e6 ea 64 3f
       0.6638693 0.73952734 0.92748755 0.89420927
000020 43 b8 58 3f f5 a9 6f 3f a5 84 21 3f 74 51 79 bd
       0.8465616 0.9361871 0.63093024 -0.060868695
000030 6e 58 6b 3f 83 b7 f1 3d 77 f2 6f be 66 f3 4e 3f
       0.9193181 0.1180258 -0.23432337 0.80840147
000040 7a f4 4e 3f ac ea 26 3f 3e 81 48 3f 6f 86 20 3f
       0.8084179 0.6520183 0.7832221 0.6270513
000050 93 c7 b2 bc 3f f9 33 3f 74 67 62 bd 09 80 a5 be
       -0.02182368 0.70302194 -0.05527444 -0.32324246
000060 6e 12 46 3d ac b9 55 3f 47 e2 33 3f 4b 14 50 3f
       0.04835742 0.8348644 0.70267147 0.81280965
000070 99 0c 5e 3f 32 e8 4c 3f dc f5 5c 3f 39 87 d0 bd
       0.8673797 0.800418 0.8631265 -0.10182042
000080 40 ed e2 be 3b fc 7e be d6 5c 9e be 04 f7 7a 3f
       -0.44321632 -0.24900906 -0.30930203 0.98033166
000090 59 9d 17 3f b6 c9 46 3f 1d d0 46 3f 51 bd 67 3f
       0.5922447 0.77651536 0.77661306 0.9052325
0000a0 ee c2 3a 3f c2 cb 6a be 18 76 55 3f 31 03 5d 3f
       0.7295369 -0.2292929 0.8338332 0.86332995
0000b0 66 2c 75 3f 52 c5 68 3f e2 e7 89 be 67 93 55 3f
       0.9577087 0.90926087 -0.26934725 0.83428043
0000c0 28 9a 2e 3f f8 66 41 3f b1 c1 6b 3f 5d e0 35 3f
       0.68203974 0.7554774 0.92092425 0.71045476
0000d0 16 66 07 bd d9 03 60 3f c6 cb 61 3f 6f 35 19 3f
       -0.03305634 0.8750587 0.8820156 0.5984716
0000e0 99 5d 39 3f e8 65 93 3d ae 98 3e 3f 80 35 4a 3f
       0.72408444 0.071971714 0.7445172 0.78987885
0000f0 aa 81 d5 bd 68 59 5b 3f 21 8e 30 3f c1 fe 59 3f
       -0.10425122 0.856833 0.6896687 0.8515435
000100 56 6e 3c be 32 4c 5e 3f a7 1e 95 bd e0 06 b7 be
       -0.18401465 0.86835015 -0.07281237 -0.35747433
000110 ef 2e 2e 3f ba 2f 6d 3f 37 06 59 3f 96 14 a7 be
       0.68040365 0.9265095 0.8477511 -0.32632893
000120 57 ab 4a 3f 8a 68 2b be 45 2e 45 3f 36 fa 51 3f
       0.79167694 -0.16739097 0.77023727 0.82022417
000130 f5 dc 37 3f c4 ac 70 3f f0 53 41 3f be 26 2b 3f
       0.7182153 0.9401362 0.75518703 0.6685599
000140 58 10 46 3f ac 2c 75 3f 80 05 47 3f 15 a1 51 3f
       0.7736869 0.9577129 0.7774277 0.81886417
000150 f0 85 b4 bc 09 aa 58 3f 5c 5e 26 3f 60 22 60 3f
       -0.022036523 0.84634453 0.6498773 0.8755245
000160 0b f5 5a 3f e5 ca 50 3f 22 31 48 3f ea ca b8 3e
       0.85530156 0.8155959 0.7819997 0.3609231
000170 88 59 55 3f d8 35 5c 3f d0 7c 2f 3f e4 f6 ed 3b
       0.8333974 0.8601966 0.68549824 0.0072620977
000180 79 14 80 be 12 f6 69 3f d0 4e 53 3f 11 d8 68 3f
       -0.2501562 0.913911 0.82542133 0.9095469
000190 df 29 64 3f b0 49 53 3f 9a 8b 2d 3f 0d d4 54 3f
       0.8912639 0.82534313 0.6779114 0.83136064
0001a0 cb 3c 0a 3f d2 bd 68 be a8 80 44 3f 63 bd 2e 3c
       0.5399901 -0.2272866 0.76758814 0.0106652705
0001b0 a2 38 30 3f a5 24 37 3f f8 46 5a 3f 98 34 58 3c
       0.68836415 0.7154029 0.8526454 0.013196133
0001c0 21 c1 59 3f 88 52 47 3f f1 c3 63 3c d3 01 6c 3f
       0.85060316 0.7786031 0.013901697 0.92190284
0001d0 db f8 40 be fe 7e 2f 3f 64 55 70 3f b7 d4 19 be
       -0.18844931 0.6855315 0.93880296 -0.1502255
0001e0 bb 6d 4f 3f 56 67 0f 3f 9c 3d 43 3f ea 07 43 3f
       0.8102681 0.56017053 0.76265883 0.7618395
0001f0 9c fc 5f 3f ad ab 4d 3f c3 b4 34 3f 99 ce 99 bd
       0.87494826 0.8034008 0.7058832 -0.075101085

g.4.weight f4 [128, 128]
000000 90 47 a5 3e b5 68 76 3e 88 01 68 3e a2 9b 4c 3d
       0.3228116 0.2406338 0.22656834 0.04995311
000010 83 4e 7e 3e 09 ea 46 3e 0e 23 3a 3e ed dc 8f 3e
       0.24834637 0.19425215 0.18177435 0.2809824
000020 68 5e 80 3e 50 ea ac 3e ea 7f 81 3e b3 10 a4 3d
       0.25072026 0.33772516 0.25292903 0.080109976
000030 41 0e a2 3e d3 81 cc be 0e cf a8 3e dc 04 7f 3e
       0.316515 -0.39942798 0.3297047 0.24904197
000040 4b ac 9b 3e f1 a0 45 3e dc 0e 8c 3e 34 b1 7a 3e
       0.30404887 0.19299676 0.27355087 0.2448166
000050 3e f1 91 bd a9 8e 9f 3e e4 bd 81 3c ce f8 45 3e
       -0.071260914 0.3116353 0.015837617 0.19333193
000060 93 f5 cc bc b9 b0 67 3e 7a 42 0f 3e 9d b5 72 3e
       -0.025019443 0.22626008 0.13990203 0.23702092
000070 ce 39 99 3e f1 08 6f 3e d9 bb 8b 3e 84 d0 19 3e
       0.29926914 0.23343255 0.27291754 0.15020949
000080 34 70 4b 3e 8a a5 7a be 35 28 7b be 2b 02 ac 3e
       0.19867021 -0.2447721 -0.24527057 0.33595404
000090 97 10 96 3e 20 42 a2 3e 2b 4a 45 3e 93 3c 4d 3e
       0.29309532 0.31691074 0.19266574 0.20042638
0000a0 ed b8 4c 3e c8 4a 26 be 06 3b aa 3e 4e 51 a4 3e
       0.19992419 -0.16239464 0.33248156 0.3209328
0000b0 ce 28 bd 3e 97 08 82 3e fb a2 2c be 87 c5 8a 3e
       0.36945194 0.2539718 -0.16859047 0.27103826
0000c0 8e fa 90 3e 6e ba 8b 3e 53 2a 7f 3e 40 0b 7e 3e
       0.28316158 0.27290672 0.24918489 0.24808979
0000d0 e5 87 f6 bc 28 5e a1 3e f2 dc 5c 3e 0c f7 3d bf
       -0.030094096 0.31517148 0.21568659 -0.7420509
0000e0 40 55 72 3e 56 33 88 bd dd db 77 3e 5c 94 93 3e
       0.23665333 -0.066504166 0.24204965 0.28824127
0000f0 50 28 e9 bb 9b a6 90 3e ac e9 88 3e 98 0a 56 3e
       -0.0071154013 0.2825211 0.26740777 0.20902479
000100 9a 8b 93 3e 92 e9 86 3e d1 d5 f1 39 b2 61 91 be
       0.28817445 0.26350075 0.00046126408 -0.28394848
000110 9a 66 4f 3e b0 0c 8c 3e 56 43 48 3e 08 a5 78 3e
       0.20253983 0.2735343 0.19556937 0.24281704
000120 1a 80 86 3e 4e 01 32 3e ff 89 ac 3e 53 c0 50 3e
       0.2626961 0.1738331 0.33699033 0.20385866
000130 fc 77 43 3e c5 de 9d 3e 33 da 99 3e cc a9 8c 3e
       0.19088739 0.30834022 0.30049285 0.27473295
000140 79 7a 8a 3e 11 37 8f 3e dd 02 73 3e fe 5a bb 3e
       0.27046564 0.279717 0.23731561 0.3659286
000150 69 5c 89 3d 76 7d 3e 3e 5d 50 9a 3e c7 07 9e 3e
       0.06707079 0.18602547 0.30139437 0.3086531
000160 a8 e3 64 3e 21 85 69 3e 3f 2c 88 3e c7 d3 cf 3d
       0.22352469 0.22804691 0.26596257 0.10147815
000170 de 20 69 3e 94 2f 90 3e 83 fb 3a 3e d8 84 28 bd
       0.22766444 0.281613 0.18260007 -0.041142315
000180 bd 7c 75 be 99 02 8f 3e 0b 8a ae 3e d4 e8 96 3e
       -0.23973365 0.2793167 0.34089693 0.2947451
000190 f0 a3 9f 3e c8 14 4e 3e 99 3e 86 3e 63 94 7f 3e
       0.31179762 0.20125115 0.26219633 0.24958949
0001a0 87 4a 60 3e b6 f0 4c 3e 8d aa af 3e 4d 44 01 3e
       0.2190343 0.20013699 0.34309807 0.12623711
0001b0 1b 1b 86 3e 5c 08 3b 3e 17 63 a5 3e 56 d6 61 3e
       0.26192555 0.18264908 0.32302162 0.22054419
0001c0 7a d4 b2 3e 8a 22 74 3e 5f 8f 51 bd 01 89 41 3e
       0.34927732 0.238413 -0.05116212 0.18899919
0001d0 ba 3c a8 be c4 60 8b 3e 0e 40 b6 3e fe 98 e8 bd
       -0.3285883 0.27222264 0.35595745 -0.11357306
0001e0 4a cf 21 3e 10 f2 56 3e 56 91 87 3e 1e b6 9a 3e
       0.15801731 0.20990777 0.2647807 0.3021707
0001f0 d3 12 80 3e 0c d7 28 3e ce c4 0e 3e 4f 76 b2 3d
       0.25014362 0.16488284 0.13942263 0.08713972
000200 79 f4 d4 bc 4a a3 96 be 02 f9 44 3d d0 39 40 bd
       -0.02599548 -0.29421455 0.048089035 -0.046930134
000210 f1 c4 a5 bd b2 7f b6 bd a2 91 90 be 45 f0 cb 3c
       -0.08094204 -0.08911075 -0.2823611 0.024894843
000220 6a d4 2a 3d a5 1a 2f bd d0 d3 d3 3b 90 01 82 3b
       0.04170648 -0.04275002 0.006464459 0.0039674714
000230 5b 63 50 3d 32 d7 a7 be 99 61 85 3d 72 5e 98 be
       0.050876003 -0.32781368 0.06512756 -0.29759556
000240 db 55 0f 3d 4c 98 95 bd f4 65 0d bd 7a 1f 48 bd
       0.034993988 -0.07304439 -0.03452106 -0.048858143
000250 9b 25 2f bd 74 46 92 bd 48 27 a6 3c 21 d5 b0 3d
       -0.042760473 -0.07142344 0.020282403 0.08634401
000260 39 51 88 3d 55 7b 6e bd 20 98 10 bc 19 9d d9 bc
       0.06656117 -0.058223087 -0.008825332 -0.026564168
000270 78 69 2a bd ef 8a 1e bd 69 11 a8 3c 41 95 1c bd
       -0.04160449 -0.038706716 0.020516114 -0.038228277
000280 5c e5 84 bd 98 99 41 3c 53 0d ac 3d 2b a9 8f be
       -0.06489059 0.011816405 0.08400979 -0.28058752
000290 46 c0 a8 3d d0 b5 73 bd 1c ea 91 3d 9b 02 a6 bb
       0.08239798 -0.05949956 0.07124731 -0.0050662286
0002a0 19 02 76 3d 68 a0 43 3c 34 aa 82 be 5d 1b 98 bd
       0.060060594 0.011940099 -0.2552048 -0.07427094
0002b0 4f 68 96 be 9b e1 84 bb e8 f1 68 bc 5c 41 61 be
       -0.29376456 -0.0040552146 -0.014217831 -0.21997589
0002c0 43 9a 13 bd cb cd 1d bd de 78 89 bd 00 34 ef 3c
       -0.036035787 -0.038526338 -0.06712507 0.0291996
0002d0 b9 4e 95 3d 9e 80 4f 3c ce 8f 6a bd 34 6b 09 3d
       0.07290406 0.012664942 -0.05726605 0.033549502
0002e0 a8 81 41 3c 1e 93 65 3d 00 ec a5 b8 ea be a2 3d
       0.011810698 0.056048505 -7.9117715e-05 0.0794657
0002f0 3d a0 9c 3d ea d0 72 bd e9 db 89 3d 82 6e 9d be
       0.076477505 -0.059281267 0.06731398 -0.30748373
000300 38 d3 b0 bd 20 eb a2 3d 50 c7 42 bd 60 55 66 3c
       -0.08634037 0.07955003 -0.04755336 0.014058441
000310 db 5c a6 3d 7b 45 3a bd a6 fc 77 3d 18 72 ac 3c
       0.081231795 -0.045476418 0.06054368 0.021050498
000320 fd c6 19 bb 4e a9 0b 3d 6c 90 25 bd 0c c9 26 bd
       -0.0023464554 0.03409701 -0.040420935 -0.040719077
000330 56 4e 9f bd 0c a0 51 be 75 d7 24 bd 31 d3 8d 3d
       -0.07778613 -0.2047121 -0.04024454 0.06925047
000340 84 24 0c 3c a4 0a 91 be b2 e1 98 3d 46 02 6f be
       0.008553628 -0.2832843 0.07464923 -0.23340711
000350 72 03 47 3d f8 a6 4a bc be 59 17 3d 5e 9d b9 be
       0.04858727 -0.01236891 0.03695082 -0.36252874
000360 7b 92 a7 bb 38 64 58 bb 71 c0 9c bd 68 ab 84 bc
       -0.0051138974 -0.003301872 -0.07653893 -0.016195014
000370 b0 d4 d8 3c 2f 1c 68 3d a8 18 00 3c 1b 8c 09 bd
       0.026468605 0.056667503 0.0078183785 -0.03358088
000380 6a 70 2b bd 3b 4f 76 bd 3d 07 9f be d3 78 a2 be
       -0.041855253 -0.060134154 -0.3106021 -0.31732807
000390 a6 0a af be dc d5 8d 3c fc 12 69 bd 1b 00 a4 bb
       -0.34187812 0.01731389 -0.05690287 -0.0050048954
0003a0 ad 31 82 3d 57 17 7d bd 6f d9 56 3d b0 81 92 bd
       0.06357131 -0.061789837 0.052453455 -0.07153642
0003b0 2e 3e 99 bd 21 4a ae 3d 0d 56 a4 be 75 f8 4b be
       -0.07482563 0.08510233 -0.32096902 -0.19918998
0003c0 23 6c a2 3d eb 5c af 3c f1 8a 34 bd 73 92 a2 3c
       0.07930782 0.021406611 -0.044077817 0.019845223
0003d0 4c b0 96 3c bf 7e 7c 3c 5f 82 88 be 39 de b1 3d
       0.018394612 0.015411078 -0.26661965 0.08684964
0003e0 80 88 16 3c 1e b1 33 3d 50 23 13 bd bc 1e 03 bd
       0.009187818 0.043870084 -0.03592235 -0.032011732
0003f0 e4 08 90 3d 6d 20 2b bc 72 a9 16 3d 2c 52 1f bd
       0.07032946 -0.010444743 0.03678269 -0.038896725

g.4.bias f4 [128]
000000 58 03 b9 3f 01 13 a4 be da 89 9c bd 6b b5 b7 3f
       1.4454145 -0.3204575 -0.076434806 1.4352239
000010 72 57 82 3f c0 22 ae 3f 2b 2d aa 3f ce 80 81 3c
       1.0182936 1.3604355 1.3295034 0.01580849
000020 44 ff f6 be c4 04 b6 3f f9 7d 11 bb db 1f 96 be
       -0.48241627 1.4220204 -0.002220033 -0.2932118
000030 0e c4 ab 3f a4 19 90 be c5 06 a2 3f 29 45 b5 3f
       1.3419206 -0.28144562 1.2658316 1.4161731
000040 2e 9c ba 3f 4b 9e a6 be 0c ce ae 3f 82 ed a9 bd
       1.4578912 -0.32542643 1.365663 -0.08297254
000050 5b 21 be 3f c1 4d 18 3d d1 78 ad 3f bd 01 a1 3f
       1.4853929 0.037183527 1.3552495 1.2578655
000060 47 62 b3 3f e2 a1 49 be bf 62 81 be 89 ee bd 3f
       1.4014367 -0.1969066 -0.2527065 1.483842
000070 11 29 c0 3f fc ae bf 3f 95 09 c9 3f 5f f1 b6 be
       1.5012532 1.4975276 1.5706049 -0.35731027
000080 5f 0d 40 3d 25 f1 8e bd 05 66 c7 3f 99 1e c4 3f
       0.04688775 -0.069795884 1.5578009 1.5321838
000090 1d dc bd 3f 3a bc a9 be b6 42 c9 3c 9e d3 b5 3f
       1.4832798 -0.33151418 0.024567943 1.4205205
0000a0 df 44 89 bd 1f 61 a5 3f 2b a1 09 3d 98 4b 6e 3d
       -0.06702589 1.2920264 0.033600967 0.05817756
0000b0 c9 5a c2 3f c8 e7 c8 3f d4 a3 30 bc 8c b0 af be
       1.5183955 1.5695734 -0.010781247 -0.34314382
0000c0 54 a8 b7 bd 8d 74 83 be 1d d0 8e be 89 8c 39 be
       -0.08967653 -0.2567486 -0.27893153 -0.18120016
0000d0 94 11 af 3f 39 dd 08 be ef 51 65 bd 25 ff 0f be
       1.367724 -0.1336564 -0.05598634 -0.14062174
0000e0 6f a2 c9 3f 72 bf bb 3f 8c 7b bc 3f 9b 4e 45 be
       1.5752696 1.46678 1.4725204 -0.19268267
0000f0 4c 6a 84 be de ef ae be 5a a5 72 bd 48 2f 10 bf
       -0.25862348 -0.3416738 -0.059239723 -0.56322145
000100 e2 4c a5 bd 06 63 ba 3f 3a 72 c0 3f 7a c7 b6 3f
       -0.08071305 1.456147 1.5034859 1.4279625
000110 87 6a 91 be e2 43 86 3f d5 28 b1 be ca 10 ac 3f
       -0.28401586 1.0489466 -0.34601465 1.3442624
000120 ad b5 bd 3f e5 c2 b7 3f 26 a4 68 bd ef cc 9f be
       1.4821068 1.4356352 -0.05679717 -0.3121104
000130 96 30 b8 3f be ca ab bd 7e de 43 3f 62 56 2c be
       1.4389827 -0.083882794 0.7651137 -0.16829827
000140 21 66 c8 3f 7b 92 ae 3f fb a9 bf 3f 85 2e f9 3f
       1.5656167 1.3638452 1.4973749 1.9467322
000150 25 75 a5 3f a3 41 c0 3f d2 af 8c 3d e9 99 b6 3f
       1.2926375 1.5020031 0.068694726 1.426572
000160 aa bd 78 3f 47 b4 9a be be 54 b8 3f 39 17 c7 3f
       0.97164404 -0.30215666 1.4400861 1.5553962
000170 db d6 b2 3f 21 b2 9a be ab 49 bf 3f a8 5c b2 3f
       1.3971819 -0.30214027 1.4944357 1.3934526
000180 f6 14 86 be 90 f0 bc 3f 5b f7 2c bd b2 19 9d be
       -0.26187867 1.4760914 -0.042228084 -0.30683666
000190 38 ee ae 3f 0b 5a a6 be e2 e0 b1 3f 9c 9e 05 be
       1.3666449 -0.32490572 1.3896754 -0.13048786
0001a0 81 fc e4 3e bf 45 c4 bd 77 95 a4 be a2 e9 ad 3f
       0.44723895 -0.095836155 -0.32145283 1.3586924
0001b0 87 39 b1 3f de 82 9c bd 31 42 0e bf 13 bb 89 bc
       1.3845681 -0.076421484 -0.5556975 -0.016812837
0001c0 85 78 73 be 28 81 a6 3c 44 63 98 be 8c 30 aa 3f
       -0.23776443 0.020325258 -0.29763234 1.3296065
0001d0 46 19 c0 3f bc 4b b5 3f bc 02 9d be 73 25 af 3f
       1.5007713 1.4163737 -0.3066615 1.3683304
0001e0 61 3c b9 be ee 8a ab 3f 0f ff ba 3f 82 a5 b6 3f
       -0.36178878 1.3401773 1.4609088 1.4269259
0001f0 f2 67 81 3f 70 db 62 be 52 a4 b8 3f 26 44 5d be
       1.0109847 -0.22154021 1.4425147 -0.21608028

g.6.weight f4 [1, 128]
000000 d6 89 88 3e 1c 6e 89 3e 74 b5 9c bd 04 ee 6c 3e
       0.2666766 0.2684182 -0.07651797 0.23137671
000010 c4 75 c1 bf 2e fc 83 3e 8c cd 50 3e 22 78 97 bd
       -1.5114064 0.25778335 0.2039091 -0.073959604
000020 0f 1a 53 3e 3a 6f b3 3e 5f 97 b0 3c f9 c7 94 3e
       0.2061541 0.35045797 0.021556554 0.29058817
000030 2f 30 64 3e 72 15 7a 3e b0 20 37 3e 39 26 a9 3e
       0.22284006 0.24422243 0.17883563 0.33036974
000040 66 99 8c 3e de e4 71 3e f3 83 8c 3e f2 4b 64 3d
       0.27460784 0.23622462 0.2744442 0.05573649
000050 c7 fa a9 3e 60 2b e3 bc 11 f0 b9 bf 48 8f 1c c0
       0.3319914 -0.027730644 -1.4526387 -2.4462452
000060 d3 97 9d 3e 2d 16 3c be 7d d0 7a 3e a0 17 9d 3e
       0.30779895 -0.18367834 0.24493594 0.30682087
000070 30 a3 8a 3e 57 1f 74 3e 68 41 bb 3e b7 8d 5e be
       0.27077627 0.2384008 0.36573339 -0.21733747
000080 96 bc 62 bc 17 1c 58 bd 74 01 ba 3e 2e 0e a4 3e
       -0.013838908 -0.052761164 0.36329234 0.32042068
000090 7d 57 b8 3e 8a 90 7f 3e e6 82 3e bb 51 e5 82 3e
       0.36004248 0.24957481 -0.002906972 0.2556558
0000a0 94 86 96 bd a5 3d cb bf 6e 04 d9 bc 49 34 34 bd
       -0.073498875 -1.5878187 -0.02649137 -0.043995176
0000b0 5a fb bf 3e 5c 1e bc 3e 76 2b 2f c0 c1 3c 54 3e
       0.37496454 0.36741912 -2.7370276 0.20726301
0000c0 31 53 af 3d 55 f1 88 be 1e 15 73 3e e4 40 06 3e
       0.085607894 -0.26746622 0.23738524 0.13110691
0000d0 bd d4 94 3e 24 19 3e 3e 5a ff 06 bd 61 28 47 be
       0.29068556 0.18564278 -0.032958366 -0.19448997
0000e0 c8 37 c5 3e 86 f1 a2 3e be dd 7b 3e be 34 da bd
       0.3851912 0.31824893 0.24596307 -0.10654591
0000f0 f9 2a 47 3e 2a 94 6c 3e 38 74 2a bc d1 b9 5b be
       0.19449987 0.23103395 -0.010403685 -0.21457602
000100 38 9c 86 bc ac 94 b1 3e 6b c0 a1 3e f2 c0 c4 3e
       -0.016431913 0.3468374 0.31592116 0.38428456
000110 88 55 60 3e c1 7a 03 c0 b9 6d 78 3e 0d 82 5f 3e
       0.21907628 -2.0543673 0.24260606 0.21826954
000120 5e aa 89 3e 87 86 a7 3e 82 db 04 3d 30 23 80 3e
       0.26887792 0.32719824 0.0324359 0.25026846
000130 bf ee aa 3e cb 9e 5d bb ef 94 0c c0 04 81 0f 3e
       0.33385274 -0.0033816572 -2.1965902 0.1401406
000140 42 9c c3 3e b9 95 23 3e 3d e2 ab 3e 0b b5 99 40
       0.38205153 0.15975083 0.33571044 4.80335
000150 ee 2c 1f 3e 1e a4 91 3e 25 ff 7b bd 76 1c 83 3e
       0.15544483 0.28445524 -0.06152262 0.2560765
000160 77 40 0a c0 22 f7 5b 3e 39 d8 57 3e 6e d3 ac 3e
       -2.1601846 0.21480992 0.21078576 0.33755058
000170 98 fc 35 3e 68 1c 6d 3e 6a f5 9f 3e 53 9e a9 3e
       0.17772138 0.23155367 0.31241924 0.33128604
000180 88 aa 8b be 63 1d 96 3e aa 9d 9e 3d 5e 80 c8 3f
       -0.27278543 0.29319295 0.07744916 1.5664175
000190 60 9e 31 3e b7 dc 6b 3e 89 ba a3 3e ce 0e 09 3c
       0.17345572 0.23033415 0.31978253 0.008365346
0001a0 38 93 2b bf 62 91 48 bd 59 b6 93 3e 0d 56 88 3e
       -0.67021513 -0.048966773 0.28850058 0.26628152
0001b0 d0 92 8f 3e 47 90 26 bd 9d 0b 10 bd 45 98 20 bd
       0.28041697 -0.040664937 -0.035167325 -0.039207716
0001c0 7f 45 4d be b1 c3 8f bc 2d 12 5a be 70 cf 38 3e
       -0.20046042 -0.017549368 -0.21295996 0.18047881
0001d0 d7 0e 9f 3e 2d 8a 96 3e 04 db 5f 3e 5a 3d 89 3e
       0.3106601 0.29402295 0.21860892 0.2680462
0001e0 5e dd 92 3e f0 90 31 3e 1f e7 73 3e 16 f7 ba 3e
       0.28684515 0.17340446 0.23818634 0.36516637
0001f0 54 93 8f bf 22 fa e0 3d 9b 58 84 3e 3d 77 6b 3e
       -1.1216836 0.10985209 0.2584885 0.22994705

exp_avg f4 [128, 4]
000000 0c 03 8f 41 96 98 87 41 a4 c8 ac 41 d1 4d a0 41
       17.876488 16.949505 21.59797 20.037996
000010 99 6e d8 42 49 c2 90 42 df 7b 9d 43 f8 3e 9a 43
       108.21601 72.37946 314.96774 308.49194
000020 04 00 00 00 04 00 00 00 04 00 00 00 04 00 00 00
       6e-45 6e-45 6e-45 6e-45
000030 e5 cb 8b c2 43 f6 b8 c2 e9 37 82 43 08 91 7f 43
       -69.89823 -92.48098 260.4368 255.56653
000040 03 00 00 00 03 00 00 00 03 00 00 00 03 00 00 00
       4e-45 4e-45 4e-45 4e-45
000050 cb 76 29 43 dc b7 7a 42 bc 55 82 43 3a f8 7c 43
       169.46404 62.67955 260.6698 252.96964
000060 71 6c 2c 41 9f b1 74 40 9e 6e e1 41 f3 44 df 41
       10.776475 3.8233411 28.179012 27.908667
000070 ca c2 91 43 96 59 48 42 7b 12 c2 43 65 b6 b9 43
       291.5218 50.087486 388.14438 371.42496
000080 76 73 39 42 c4 0a 50 42 61 f5 54 c1 ff a0 73 41
       46.362755 52.010513 -13.309907 15.226806
000090 a6 0c 01 43 6e 9e ac 42 33 d7 bb 43 72 f7 b7 43
       129.04941 86.30943 375.68124 367.93317
0000a0 03 00 00 00 03 00 00 00 03 00 00 00 03 00 00 00
       4e-45 4e-45 4e-45 4e-45
0000b0 0c d3 de c0 cb 4b 4b 41 b2 ff 2e 43 92 c6 2f 43
       -6.9632626 12.706004 174.99881 175.77567
0000c0 81 4a 1e 43 23 e4 c6 42 5e a4 f6 43 7b 82 ee 43
       158.29103 99.44558 493.28412 477.01938
0000d0 03 00 00 80 03 00 00 80 03 00 00 00 03 00 00 00
       -4e-45 -4e-45 4e-45 4e-45
0000e0 03 00 00 80 03 00 00 80 03 00 00 80 03 00 00 80
       -4e-45 -4e-45 -4e-45 -4e-45
0000f0 03 00 00 80 03 00 00 80 03 00 00 00 03 00 00 00
       -4e-45 -4e-45 4e-45 4e-45
000100 03 00 00 80 03 00 00 80 03 00 00 00 03 00 00 00
       -4e-45 -4e-45 4e-45 4e-45
000110 03 00 00 00 03 00 00 00 03 00 00 00 03 00 00 00
       4e-45 4e-45 4e-45 4e-45
000120 b9 ca ae 43 f0 7c 60 42 6d d7 ee 43 7a 8f e1 43
       349.58377 56.12201 477.683 451.1209
000130 05 00 00 00 05 00 00 80 05 00 00 80 05 00 00 80
       7e-45 -7e-45 -7e-45 -7e-45
000140 af e2 44 c3 5f 99 d9 c3 4c 4c 21 c5 d1 00 1d c5
       -196.88548 -435.1982 -2580.7686 -2512.051
000150 03 00 00 00 03 00 00 80 03 00 00 80 03 00 00 80
       4e-45 -4e-45 -4e-45 -4e-45
000160 a1 37 d9 42 e6 b2 33 42 bd ac 35 43 03 cd 32 43
       108.60865 44.924706 181.67476 178.80083
000170 03 00 00 80 03 00 00 80 03 00 00 80 03 00 00 80
       -4e-45 -4e-45 -4e-45 -4e-45
000180 03 00 00 00 03 00 00 80 03 00 00 80 03 00 00 80
       4e-45 -4e-45 -4e-45 -4e-45
000190 03 00 00 00 03 00 00 80 03 00 00 80 03 00 00 80
       4e-45 -4e-45 -4e-45 -4e-45
0001a0 c0 f5 5e 42 e1 09 88 42 5f dc 89 c1 a6 ad 72 41
       55.73999 68.019295 -17.232603 15.167395
0001b0 d0 5e 0e 43 f9 6b ee 41 35 f9 54 43 c3 cd 4b 43
       142.37036 29.802721 212.97346 203.80376
0001c0 03 00 00 80 03 00 00 00 03 00 00 00 03 00 00 00
       -4e-45 4e-45 4e-45 4e-45
0001d0 ea 45 44 43 83 eb 3e 42 94 d2 a4 43 fc 81 9e 43
       196.2731 47.729992 329.64514 317.0155
0001e0 04 00 00 80 04 00 00 80 04 00 00 80 04 00 00 00
       -6e-45 -6e-45 -6e-45 6e-45
0001f0 37 72 f5 42 73 5a e7 42 79 d7 b1 c3 a5 40 b2 c3
       122.723076 115.67666 -355.68338 -356.50504
000200 71 42 ad 43 02 2f 84 42 ac 58 f5 43 e3 59 eb 43
       346.51907 66.09181 490.69275 470.70224
000210 2b bc 90 43 37 fd 8d 42 c2 9c f3 43 6a 5c ea 43
       289.47006 70.99456 487.22467 468.722
000220 25 12 fb 41 4e fc 08 42 9b 4f 9f 43 11 32 9b 43
       31.38386 34.24639 318.62192 310.39114
000230 9b 8e 6e 43 8a 92 8c 42 d9 28 99 43 e6 5e 95 43
       238.55705 70.28621 306.31912 298.7414
000240 e9 7b 99 c0 9d 17 c1 3f cb 0c 98 42 1c 65 98 42
       -4.7963758 1.5085331 76.02499 76.19748
000250 73 f8 87 c2 d3 e8 ac c2 77 1e b6 40 fe 5e 23 c1
       -67.98525 -86.454735 5.691219 -10.210691
000260 00 00 00 00 00 00 00 00 00 00 00 00 00 00 00 00
       0.0 0.0 0.0 0.0
000270 03 00 00 00 03 00 00 00 03 00 00 80 03 00 00 80
       4e-45 4e-45 -4e-45 -4e-45
000280 f3 70 19 c3 74 2a b6 c2 f2 67 07 c4 89 10 fa c3
       -153.44121 -91.08292 -541.62415 -500.12918
000290 00 00 00 00 00 00 00 00 00 00 00 00 00 00 00 00
       0.0 0.0 0.0 0.0
0002a0 d1 79 f7 42 40 4a 4b 42 44 2e aa 43 41 35 a5 43
       123.73792 50.82251 340.36145 330.41605
0002b0 03 00 00 80 03 00 00 80 03 00 00 00 03 00 00 00
       -4e-45 -4e-45 4e-45 4e-45
0002c0 0c 87 b4 42 1e 4c a6 41 26 38 16 43 6f 57 11 43
       90.26376 20.787167 150.21933 145.34154
0002d0 5a 3a 43 43 6f 7e 53 42 14 b9 a5 43 8d f6 9b 43
       195.22794 52.87347 331.44592 311.92618
0002e0 04 00 00 80 04 00 00 80 04 00 00 80 04 00 00 80
       -6e-45 -6e-45 -6e-45 -6e-45
0002f0 f9 ee 0f 43 32 3f a9 42 f6 5d ed 43 1a 93 e4 43
       143.93349 84.62343 474.73407 457.14923
000300 0f 30 04 42 4c 4b 24 42 95 ec 6d 41 d8 5f 75 41
       33.046932 41.073532 14.870259 15.335899
000310 00 00 00 00 00 00 00 00 00 00 00 00 00 00 00 00
       0.0 0.0 0.0 0.0
000320 c0 40 e3 41 bd 2e d8 41 a3 9d 0d 42 f2 71 ff 41
       28.406616 27.022821 35.403942 31.930637
000330 d0 51 d5 42 9e 26 59 42 6b 89 bf 43 d5 42 ba 43
       106.65979 54.287712 383.07358 372.52213
000340 03 00 00 80 03 00 00 80 03 00 00 00 03 00 00 00
       -4e-45 -4e-45 4e-45 4e-45
000350 4f 0a 46 43 64 9d 20 42 7c 6c 91 43 d8 b8 8b 43
       198.04027 40.1537 290.84753 279.4441
000360 7c d0 a8 40 85 88 52 40 14 b7 ac 41 cd c4 ad 41
       5.2754498 3.2895825 21.589394 21.721094
000370 23 93 8b 41 4e 8d 78 41 33 71 22 43 59 b2 21 43
       17.446844 15.534498 162.44218 161.69667
000380 e0 a1 fc bf 3d b6 39 c0 c1 b9 1d 41 89 fa 1d 41
       -1.97369 -2.901748 9.85785 9.873666
000390 83 7c b2 43 04 05 6b 42 9d 2a e6 43 49 2a dc 43
       356.97275 58.754898 460.33292 440.33035
0003a0 b8 10 2c 43 ea 2a e7 41 35 d2 60 43 09 7c 57 43
       172.0653 28.895954 224.82112 215.48451
0003b0 14 26 c4 41 e3 72 a7 c0 8a e2 e7 c1 53 a1 b5 c1
       24.518593 -5.2327743 -28.985615 -22.703772
0003c0 04 00 00 80 04 00 00 80 04 00 00 00 04 00 00 00
       -6e-45 -6e-45 6e-45 6e-45
0003d0 03 00 00 00 03 00 00 80 03 00 00 80 03 00 00 80
       4e-45 -4e-45 -4e-45 -4e-45
0003e0 9d 41 ee c0 e0 9d d4 c0 1c 96 d6 c0 58 13 02 c1
       -7.4455094 -6.644272 -6.705824 -8.129723
0003f0 03 00 00 80 03 00 00 80 03 00 00 80 03 00 00 80
       -4e-45 -4e-45 -4e-45 -4e-45

exp_avg_sq f4 [128, 4]
000000 bf 8b 29 48 8b df 17 48 08 ee 63 48 be 5f 54 48
       173614.98 155518.17 233400.12 217470.97
000010 59 75 5f 4a d3 5c ba 4a 4a 06 9e 4a bd c7 9e 4a
       3.6611422e+06 6.1067295e+06 5.178149e+06 5.2029105e+06
000020 61 7a 10 35 5a f6 a2 35 85 c8 ea 35 c4 86 ee 35
       5.3822265e-07 1.2141638e-06 1.7492717e-06 1.7771604e-06
000030 3f bb 04 4a 78 3c a6 4a ea 95 a3 4a b1 b4 a4 4a
       2.1746718e+06 5.447228e+06 5.360373e+06 5.3970805e+06
000040 d9 76 48 2c 7d 65 3c 2c f0 43 fa 2b aa 99 ff 2b
       2.8487683e-12 2.6772744e-12 1.7782425e-12 1.816149e-12
000050 a4 0e 39 4a 22 73 85 4a 8e 88 61 4a a5 95 62 4a
       3.031977e+06 4.372881e+06 3.6951395e+06 3.7123612e+06
000060 cd 1a 1a 47 49 21 5d 47 bd cd 43 47 b4 30 42 47
       39450.8 56609.285 50125.74 49712.703
000070 62 46 e0 4a 07 e6 1f 4b 85 d6 08 4b 51 e7 08 4b
       7.349041e+06 1.0479111e+07 8.967813e+06 8.972113e+06
000080 2d 19 b7 48 56 cc af 48 54 5a 1c 49 9a 5e 2a 48
       374985.4 360034.7 640421.25 174458.4
000090 f6 e9 9e 4a 40 88 04 4b 81 c2 e0 4a 02 d4 e1 4a
       5.207291e+06 8.685632e+06 7.3649285e+06 7.399937e+06
0000a0 6c 22 70 2e e0 6e 7c 2e a3 7d 07 2f ce 9f 06 2f
       5.4600255e-11 5.7396643e-11 1.2322814e-10 1.2244003e-10
0000b0 3d a5 64 49 5f 9d 00 4a 6f 0e dd 49 6b 33 de 49
       936531.8 2.1072238e+06 1.8108939e+06 1.8202694e+06
0000c0 62 8c 06 4b 72 60 60 4b d3 04 3e 4b d3 f6 3e 4b
       8.817762e+06 1.4704754e+07 1.2453075e+07 1.2515027e+07
0000d0 d3 28 42 32 b5 70 be 32 f3 ba 10 33 a2 a5 13 33
       1.1301569e-08 2.2170164e-08 3.3697642e-08 3.4376747e-08
0000e0 c0 52 76 2f 89 a2 bb 2e eb db 8b 2f 89 a9 97 2f
       2.2402968e-10 8.5326475e-11 2.5440214e-10 2.7587202e-10
0000f0 4f 3e 0c 30 e5 62 9b 30 00 69 16 31 f6 84 1b 31
       5.102025e-10 1.1305842e-09 2.1887558e-09 2.2631048e-09
000100 af 36 dd 34 1c c7 74 35 01 ba c0 35 d8 07 c5 35
       4.1204245e-07 9.1186826e-07 1.4359249e-06 1.4679927e-06
000110 79 48 06 2d 3f 6b 42 2d f2 c0 b9 2c 0a 6f ba 2c
       7.63311e-12 1.1051437e-11 5.2794375e-12 5.2987658e-12
000120 99 25 26 4b ae db 6d 4b 92 30 49 4b 45 88 49 4b
       1.0888601e+07 1.558827e+07 1.318517e+07 1.3207621e+07
000130 07 b2 40 39 5f 2e 64 38 97 a6 d5 38 93 1c 85 38
       0.00018376867 5.4402622e-05 0.00010187661 6.3472566e-05
000140 19 50 8a 4b 35 ba 2c 4c 86 b5 32 4d 88 81 30 4d
       1.8128946e+07 4.5279444e+07 1.8739005e+08 1.8507994e+08
000150 79 f7 2c 2c 0b f7 84 29 b1 6f 8f 28 70 43 c6 28
       2.4580045e-12 5.904833e-14 1.5924628e-14 2.2011662e-14
000160 ae 5d b1 49 bd ad 01 4a 00 50 da 49 88 23 dd 49
       1.4529818e+06 2.1246552e+06 1.788416e+06 1.811569e+06
000170 12 71 b4 2d c9 63 87 2d 90 84 bb 2d 15 8a b0 2d
       2.0513844e-11 1.5392037e-11 2.1318308e-11 2.0070204e-11
000180 af d3 85 2c 17 0b 0c 2c ad 5c b2 2b 9c d3 b8 2b
       3.803589e-12 1.9901353e-12 1.2673383e-12 1.313272e-12
000190 5e 1f 3e 2c e8 7f 1d 2c 00 d3 e5 2b 9f e9 e9 2b
       2.7018036e-12 2.2382044e-12 1.6329993e-12 1.6620489e-12
0001a0 c7 39 72 48 0d 24 77 48 cd 2a c3 48 37 b5 dc 47
       248039.11 253072.2 399702.4 113002.43
0001b0 23 a0 05 4a 78 cf 3b 4a ff c1 20 4a 56 d5 20 4a
       2.1893208e+06 3.077086e+06 2.6338558e+06 2.6350935e+06
0001c0 37 07 2d 33 15 07 cf 33 9a c1 07 34 e0 e9 0a 34
       4.0286263e-08 9.640477e-08 1.2643287e-07 1.2937335e-07
0001d0 40 5b 9a 4a ca 6e dd 4a c4 73 bd 4a 0f 82 bd 4a
       5.057952e+06 7.255909e+06 6.20797e+06 6.2097995e+06
0001e0 58 4d 31 34 9e 99 cd 34 06 39 4e 35 3c 3c 5b 35
       1.6512547e-07 3.8295997e-07 7.682396e-07 8.167151e-07
0001f0 ac a5 66 49 11 2a 49 49 f6 1b 44 4b 03 c8 4e 4b
       944730.75 823969.06 1.2852214e+07 1.3551619e+07
000200 78 c3 2e 4b b7 45 7b 4b 09 bb 56 4b 3b dc 56 4b
       1.1453304e+07 1.6467383e+07 1.4072585e+07 1.4081083e+07
000210 ff 37 28 4b fb 6c 71 4b 17 7d 4e 4b e7 8f 4e 4b
       1.1024383e+07 1.5822075e+07 1.3532439e+07 1.3537255e+07
000220 76 1b 2e 4a ce b1 b4 4a 51 71 99 4a fe 08 9c 4a
       2.8525735e+06 5.920999e+06 5.0280085e+06 5.112959e+06
000230 7f 53 85 4a 8d f7 bf 4a ea df a2 4a aa 33 a3 4a
       4.3688315e+06 6.2903745e+06 5.337077e+06 5.347797e+06
000240 e6 c8 40 48 d5 fb d8 48 b3 43 c4 48 5d 1f c4 48
       197411.6 444382.66 401949.6 401658.9
000250 d4 1a 81 48 b7 2c 7f 48 47 83 23 48 cf 1a 2d 48
       264406.62 261298.86 167437.11 177259.23
000260 00 00 00 00 00 00 00 00 00 00 00 00 00 00 00 00
       0.0 0.0 0.0 0.0
000270 d3 92 82 2f b6 86 7e 2f 59 02 11 2f 18 46 0f 2f
       2.3751187e-10 2.3149024e-10 1.3188507e-10 1.3030677e-10
000280 15 fb c6 49 f7 d4 78 49 09 bc fc 4a 85 8d bc 4a
       1.6300506e+06 1.01921544e+06 8.2816045e+06 6.1784985e+06
000290 00 00 00 00 00 00 00 00 00 00 00 00 00 00 00 00
       0.0 0.0 0.0 0.0
0002a0 90 a7 93 4a 2a 7b e5 4a 42 04 c5 4a fa 06 c5 4a
       4.838344e+06 7.519637e+06 6.455841e+06 6.456189e+06
0002b0 4e ff 1e 30 9b 3f 97 30 49 6d 1d 31 db 9c 25 31
       5.7842875e-10 1.1004774e-09 2.2908628e-09 2.4099822e-09
0002c0 6e 25 82 49 f3 1a bd 49 72 bb a2 49 23 8d a2 49
       1.0661578e+06 1.5491504e+06 1.3331022e+06 1.3316204e+06
0002d0 42 46 92 4a 7c bd d2 4a 23 53 b2 4a 5f ae b2 4a
       4.793121e+06 6.905534e+06 5.8433455e+06 5.8550235e+06
0002e0 67 f4 0d 35 6f ec 75 35 49 ee aa 35 c3 b7 ab 35
       5.2882245e-07 9.161367e-07 1.2735337e-06 1.2793975e-06
0002f0 00 a3 f9 4a 90 24 50 4b e4 6c 30 4b c9 e8 30 4b
       8.180096e+06 1.3640848e+07 1.1562212e+07 1.1593929e+07
000300 15 eb 4c 48 69 85 49 48 17 02 48 48 83 7a 51 48
       209836.33 206357.64 204808.36 214506.05
000310 00 00 00 00 00 00 00 00 00 00 00 00 00 00 00 00
       0.0 0.0 0.0 0.0
000320 62 12 5d 49 6f 0f 46 49 24 60 93 49 86 79 8a 49
       905510.1 811254.94 1.2073005e+06 1.1343848e+06
000330 55 d7 ab 4a f2 a1 0e 4b 3a 68 f4 4a cb 9e f4 4a
       5.6308905e+06 9.34757e+06 8.008733e+06 8.0157175e+06
000340 be c7 d7 30 f4 ff 57 31 e7 16 ef 31 31 5a fb 31
       1.5700079e-09 3.143211e-09 6.958419e-09 7.315315e-09
000350 ce 13 72 4a ec bd ae 4a 00 3a 95 4a cb 50 95 4a
       3.9661955e+06 5.725942e+06 4.889856e+06 4.8927735e+06
000360 38 c1 ab 46 cb 0e f4 46 b9 6e d6 46 8d 97 d4 46
       21984.61 31239.396 27447.361 27211.775
000370 e6 54 2e 49 d1 dd b4 49 31 17 98 49 f8 ec 9a 49
       714062.4 1.4816581e+06 1.2459261e+06 1.269151e+06
000380 a8 1c 0f 45 16 33 b5 45 64 3a ce 45 67 cd cf 45
       2289.791 5798.3857 6599.299 6649.6753
000390 93 18 1f 4b 14 29 62 4b 64 90 41 4b 28 aa 41 4b
       1.0426515e+07 1.4821652e+07 1.2685412e+07 1.2692008e+07
0003a0 ee 5d 17 4a 7b 5a 57 4a 7e 73 38 4a 06 78 38 4a
       2.4799955e+06 3.5283508e+06 3.0220475e+06 3.0223375e+06
0003b0 75 3f a8 47 f6 32 93 46 ee f6 5e 47 7a 11 f1 46
       86142.914 18841.48 57078.93 30856.738
0003c0 d7 40 27 33 98 16 b3 33 45 55 01 34 ed 65 04 34
       3.894169e-08 8.339447e-08 1.2045082e-07 1.2330538e-07
0003d0 02 6f c6 2c ec 74 4f 2c 4b 09 1b 2d b1 b9 22 2d
       5.639823e-12 2.9481374e-12 8.812793e-12 9.249866e-12
0003e0 0f 1b 8d 45 c9 e8 7e 45 07 9e a6 45 8f fd ac 45
       4515.3823 4078.549 5331.7534 5535.695
0003f0 5b 34 29 31 33 dd 1c 31 f3 4b b0 31 49 88 b9 31
       2.4622497e-09 2.2826725e-09 5.1309086e-09 5.3997025e-09
